CNN/pytorch/mnist_cnn_preloaded.pth (torch, 90448 bytes, 8 tensors)

conv1.weight f4 [10, 1, 5, 5]
0	0x3e267201	0.16254427
1	0x3e9eac6f	0.3099093
2	0x3e7641a3	0.24048476
3	0x3e6af5c6	0.22945318
4	0x3e1334a1	0.14375545
5	0x3e4ed654	0.20198947
6	0x3ef0c33a	0.47023946
7	0x3eb98fd4	0.36242545
8	0x3e7446d8	0.2385515
9	0xbe96e37e	-0.29470438
10	0x3e9a5afa	0.30147535
11	0x3ee01ef7	0.43773624
12	0x3ea206cb	0.31645808
13	0xbd86a2bd	-0.065740086
14	0xbe6be835	-0.23037799
15	0x3ea3d604	0.31999218
16	0x3da8994b	0.08232363
17	0x3d7c802f	0.061645683
18	0x3e147e74	0.14501363
19	0xbe00482f	-0.12527536
20	0x3e879f98	0.26488948
21	0x3e6f97dd	0.23397775
22	0x3e584ee2	0.21123841
23	0x3e1558da	0.14584675
24	0x3dbd0237	0.09228938
25	0x3d2cb05e	0.042160384
26	0xbc842d74	-0.016134955
27	0x3c2c2b59	0.010508382
28	0xbe232bff	-0.15934752
29	0x3d17f920	0.03710282
30	0x3e8e65c9	0.2781203
31	0x3e871bd9	0.26388434
32	0x3ee1b962	0.44086748
33	0x3eccaa44	0.39973652
34	0x3e513eaf	0.20434068
35	0x3e621d38	0.22081459
36	0x3e8c3234	0.27382052
37	0x3eb7ee5c	0.3592404
38	0x3db0d691	0.08634675
39	0x3e54e4d4	0.20790416
40	0xbdac317a	-0.084078744
41	0xbe12dfe4	-0.1434322
42	0xbe45a5ae	-0.19301483
43	0xbd1e1538	-0.038594455
44	0x3d781e86	0.060575984
45	0xbe8d7006	-0.2762453
46	0xbea38c90	-0.31943178
47	0xbe518cc6	-0.20463857
48	0xbdcfdbaf	-0.10149323
49	0xbd1653e7	-0.03670111
50	0x3eaa16f8	0.3322065
51	0x3e24cd96	0.1609405
52	0xbe633e31	-0.22191693
53	0xbdb1a396	-0.0867378
54	0xbdad2646	-0.08454566
55	0x3e947ffe	0.290039
56	0xbcb6fac4	-0.022336371
57	0xbe4ae004	-0.19812018
58	0x3d2cbb0d	0.042170573
59	0x3e019de6	0.1265789
60	0x3eaced25	0.33774677
61	0x3e3fa5c6	0.18715581
62	0x3e5ff7e0	0.218719
63	0x3e0683a5	0.13136156
64	0x3d78050f	0.0605517
65	0x3ea3b5ce	0.31974643
66	0xbd89ac61	-0.06722332
67	0x3d31a8d1	0.043373886
68	0xbdfcf036	-0.12350504
69	0xbdd20ca7	-0.102563195
70	0x3e865048	0.26233125
71	0x3e8b98af	0.27264926
72	0xbd13dd02	-0.03609944
73	0x3e13fad6	0.14451155
74	0xbd916e8c	-0.07101163
75	0xbcbbfde6	-0.022948217
76	0x3e5482e6	0.20753059
77	0x3e846f86	0.25866336
78	0x3ea5df68	0.32397008
79	0x3e616756	0.22012076
80	0x3dd7b4f8	0.10532564
81	0x3dde0952	0.108416215
82	0x3da470e1	0.080293424
83	0xbb86dc63	-0.0041156276
84	0x3e94ab6f	0.29037043
85	0x3e8b78fa	0.27240735
86	0xbd9d0211	-0.0766641
87	0x3e114dd2	0.14189842
88	0x3d0d2d12	0.03446681
89	0x3e42dd77	0.19029795
90	0x3ce0d4c9	0.027445214
91	0xbdc0f560	-0.094218016
92	0x3d7aeea1	0.06126273
93	0xbdb228d9	-0.08699197
94	0xbe769be3	-0.24082904
95	0xbc935bc3	-0.017988091
96	0xbe561ccb	-0.20909421
97	0xbe880bb0	-0.26571417
98	0xbe9204be	-0.28519243
99	0xbe7affea	-0.24511686
100	0x3e0101cf	0.12598346
101	0x3d5abca2	0.05340255
102	0xbd80a35b	-0.062811576
103	0x3ddeeddf	0.10885214
104	0x3e8b490a	0.27204162
105	0xbcc0497a	-0.023472536
106	0x3df93783	0.12168791
107	0xbe1d9f42	-0.15392783
108	0x3dbd66f7	0.092481546
109	0x3e2eb8c4	0.1706267
110	0x3e38c038	0.18042076
111	0xbe39de30	-0.18151164
112	0xbd53f1a9	-0.051744137
113	0x3dd212da	0.10257502
114	0x3e762826	0.24038753
115	0x3c6c16a6	0.014409697
116	0x3e2c4658	0.16823709
117	0x3e8323e8	0.25613332
118	0xbe2615ca	-0.1621925
119	0x3e3d0adb	0.18461172
120	0x3c79ad47	0.015239066
121	0xbd82d283	-0.06387808
122	0xbe109db7	-0.14122663
123	0xbe4c6d39	-0.1996354
124	0xbc7d5c8c	-0.015463959
125	0xbc74e440	-0.014946997
126	0xb98587ec	-0.00025469007
127	0xbca44ae2	-0.020055238
128	0x3da83346	0.08212905
129	0xbdfde205	-0.123966254
130	0x3e16defd	0.14733501
131	0x3e13a299	0.14417495
132	0xbe03f28d	-0.12885495
133	0xbd35a468	-0.044346243
134	0xbdc18aeb	-0.094503246
135	0x3d1a441b	0.037662607
136	0x3e664ae8	0.22489512
137	0xbe6843a3	-0.22682051
138	0xbe08d852	-0.1336377
139	0x3c8d9350	0.017282158
140	0x3e30861c	0.17238659
141	0xba595dcd	-0.00082918705
142	0x3cb6b383	0.022302395
143	0xbe0593ad	-0.13044615
144	0xbdf583ee	-0.11988054
145	0x3ea4b706	0.32170886
146	0xbe190bb5	-0.14945872
147	0xbdf1f8a5	-0.11815003
148	0xbe2e84f0	-0.17042899
149	0xbd677bdb	-0.056514602
150	0x3d10b6a7	0.03533044
151	0x3e7a2ec6	0.24431905
152	0xbe0b0649	-0.13576616
153	0x3e2ae800	0.16690063
154	0xbe4156cb	-0.18880765
155	0xbd3ec3bf	-0.046573397
156	0xbd02fde2	-0.031980403
157	0xbe30d58c	-0.17268962
158	0xbe63b324	-0.22236305
159	0x3c15c2f9	0.009140723
160	0x3e1f938a	0.15583625
161	0x3e32c4bf	0.17457865
162	0xbd60eac0	-0.054911375
163	0xbe648054	-0.22314578
164	0x3ceaf812	0.028682742
165	0x3e39530d	0.18098088
166	0xbe366e42	-0.17815498
167	0xbd662418	-0.056186765
168	0xbe3e2bec	-0.18571442
169	0x3d0f2e75	0.034956414
170	0xbe0c1654	-0.13680393
171	0xbe2fbc0a	-0.17161575
172	0xbe087295	-0.1332496
173	0xbdfcda33	-0.12346306
174	0xbd5df863	-0.05419196
175	0x3e840e82	0.2579232
176	0xbd97d471	-0.07413567
177	0x3c0b2d03	0.008494618
178	0xbe44d536	-0.19221959
179	0xbe5156f4	-0.20443326
180	0x3dfc5e54	0.12322679
181	0x3eeb01ec	0.45899904
182	0x3ea6f5f1	0.32609513
183	0x3d9ecf37	0.07754367
184	0xbc46286a	-0.012094596
185	0x3e37ab36	0.17936406
186	0x3ee665d1	0.44999555
187	0x3ecad4e3	0.39615545
188	0x3d17fe9d	0.037108053
189	0xbe0a4053	-0.135011
190	0x3e01387a	0.126192
191	0x3e8ae3e3	0.2712699
192	0x3e79eee9	0.24407543
193	0x3d9b3be0	0.075797796
194	0x3cc5d89c	0.024151139
195	0xbe23dcc2	-0.16002181
196	0xbe3f0a83	-0.18656354
197	0x3e61a8ef	0.220371
198	0x3e571076	0.21002373
199	0x3daa655d	0.08320115
200	0xbe7106d2	-0.23537758
201	0xbdf5b3d0	-0.11997187
202	0xbdd30684	-0.10303977
203	0x3e39782f	0.18112253
204	0x3de50503	0.111825965
205	0x3e1cd667	0.15316163
206	0x3db24e5f	0.08706354
207	0xbdddcf22	-0.10830523
208	0x3df775fe	0.12083052
209	0xbdf30578	-0.118662775
210	0x3dfee87b	0.12446686
211	0x3dfd091e	0.123552546
212	0xbd8f04c2	-0.06983329
213	0x3d87fbb0	0.066398025
214	0x3dee39b9	0.116321035
215	0x3e323adf	0.1740527
216	0x3d09a65a	0.03360591
217	0x3e2eb4ef	0.17061208
218	0x3e8474e4	0.2587043
219	0x3c597bcb	0.013274143
220	0x3e0ab934	0.13547212
221	0x3e25c94d	0.16190071
222	0x3e3d4258	0.1848234
223	0xbe2b140e	-0.16706869
224	0x3c980eb4	0.018561698
225	0xbe4605f1	-0.19338204
226	0xbe622548	-0.22084534
227	0xbe515ab7	-0.20444761
228	0xbdd38439	-0.10327954
229	0x3db814d9	0.089883514
230	0x3d80a8a9	0.06282169
231	0x3d035729	0.032065544
232	0xbe636309	-0.22205748
233	0x3d98bfa2	0.07458426
234	0xbdb7c757	-0.08973568
235	0x3bd312fd	0.0064414726
236	0x3cb5d244	0.022194989
237	0xbdbe74e9	-0.092996426
238	0xbe4f772e	-0.20260307
239	0xbe28217e	-0.16419026
240	0xbdbe5c9b	-0.09295007
241	0xbd83d2a8	-0.06436664
242	0x3dca7d97	0.098872356
243	0xbe453a08	-0.19260418
244	0x3c5d934d	0.013523889
245	0xbe2cea55	-0.16886266
246	0xbdc43c4e	-0.09581815
247	0xbd18c854	-0.037300423
248	0xbe5400c0	-0.20703411
249	0x3e219935	0.157811

conv1.bias f4 [10]
0	0xbd5faea3	-0.054609906
1	0xbc32f311	-0.010922209
2	0xbdc8e3f6	-0.09809105
3	0xbcd62927	-0.02614267
4	0x3e57e30a	0.21082702
5	0x3e104178	0.14087474
6	0xbd2e3e59	-0.042539928
7	0x3e8c7b28	0.2743771
8	0xbcbe36ba	-0.023219455
9	0x3df21b62	0.11821629

conv2.weight f4 [20, 10, 5, 5]
0	0x3cd5e1d1	0.026108654
1	0x3dd376ff	0.10325431
2	0x3c47bfbb	0.012191708
3	0xbd1b799e	-0.03795778
4	0x3cf1c98f	0.029515056
5	0x3e20f445	0.15718181
6	0x3df412e7	0.11917668
7	0xbdca40e0	-0.09875655
8	0xbc8b5ea7	-0.017012907
9	0xbcb1e542	-0.021715764
10	0x3e2e01ae	0.16992828
11	0x3d8d9736	0.06913607
12	0xbdea7a3c	-0.114490956
13	0xbc38180d	-0.011236203
14	0x3c2edbef	0.010672553
15	0x3d5743fd	0.052555073
16	0xbd817d2f	-0.06322705
17	0x3b8f0af7	0.004365321
18	0x3b99d9f1	0.00469517
19	0x3d47dacb	0.04879264
20	0xbd64aa01	-0.05582619
21	0xbd4c1f55	-0.049834568
22	0x3c8add74	0.0169513
23	0x3d45cc5b	0.04829059
24	0x3cc98ef3	0.024604296
25	0xbd1d951c	-0.03847228
26	0x3c98cccd	0.018652344
27	0xbd4af947	-0.049554136
28	0x3c4c4a7e	0.012468932
29	0xbd6d0825	-0.057869095
30	0xbca6f8f9	-0.020382391
31	0xbd438aad	-0.047739673
32	0xbd94c22b	-0.07263597
33	0xbb8dcbf5	-0.004327292
34	0xbd066f06	-0.032820724
35	0x3c4ba09f	0.012428432
36	0xbda27e90	-0.07934296
37	0xbb991bb3	-0.0046724915
38	0xbd02391b	-0.03179274
39	0x3cb36d86	0.02190281
40	0xbcbb3b42	-0.022855405
41	0xbbb79b8e	-0.0056032604
42	0xbd8fe9b6	-0.07026999
43	0x3cc24aa6	0.023717236
44	0x3c1f0e95	0.0097080665
45	0x3d1c4597	0.038152304
46	0x3b490867	0.0030675174
47	0x3cde45f8	0.027132973
48	0x3ccbb255	0.024865309
49	0xbc4ec5d8	-0.012620412
50	0xbd28048c	-0.04101996
51	0x3d42dd26	0.047574185
52	0xbc94ae73	-0.01814959
53	0xbd8d7794	-0.06907573
54	0xbc4f4b1f	-0.012652188
55	0x3bbdb2da	0.005789143
56	0x3d98db8d	0.07463751
57	0x3d1adc01	0.03780747
58	0xbd319440	-0.043354273
59	0xbd7050e2	-0.058670886
60	0xbcde1cd2	-0.027113352
61	0x3d90f2ab	0.07077535
62	0xbd7eed5d	-0.062238086
63	0x3c823c84	0.015897997
64	0xbd46b675	-0.04851385
65	0x3d8c2754	0.06843439
66	0x3d8442cb	0.06458052
67	0xbda3e640	-0.08002901
68	0xbcbfe7fd	-0.02342605
69	0xbd46bdb5	-0.048520762
70	0x3d5ce8fa	0.05393312
71	0x3c97124a	0.018441338
72	0x3d453f18	0.048155874
73	0xbca7fc91	-0.020506175
74	0xbd40b98d	-0.047051955
75	0x3ce9b2f8	0.028527722
76	0x3d555070	0.052078664
77	0xbd7b4d85	-0.061353225
78	0xbd9804e5	-0.074228086
79	0x3d41a9be	0.04728102
80	0xbc9aebfd	-0.018911356
81	0x3d87bb6f	0.06627547
82	0x3d506ada	0.05088315
83	0xbccaf715	-0.024776021
84	0xbb2dc36e	-0.002651419
85	0x3d4f9c76	0.050686322
86	0xbd93ccb4	-0.072167784
87	0x3ca90241	0.020630958
88	0xbca5220b	-0.020157835
89	0xbd33ebef	-0.043926176
90	0x3ccdc81e	0.025119837
91	0xbdabeae3	-0.083944105
92	0xba34501d	-0.0006878393
93	0xbd75440e	-0.059879355
94	0xbd46968e	-0.048483424
95	0x3d2a6eec	0.04160969
96	0xbbedf722	-0.0072621265
97	0x3c2d9c1b	0.0105963005
98	0x3d0751cb	0.03303699
99	0x3cc40e3c	0.023932569
100	0xbd0f1fe6	-0.03494253
101	0xbba1f2cf	-0.004942275
102	0x3b8bc853	0.004265824
103	0x3b3b4f7f	0.002858132
104	0xbc22b282	-0.009930255
105	0x3cf48a44	0.029851086
106	0xbd03aece	-0.03214913
107	0xbd4bfe2a	-0.049802937
108	0xbd1d3caa	-0.038387932
109	0x3d3bce12	0.04585082
110	0x3846e874	4.7423368e-05
111	0x3d0a06dd	0.03369795
112	0x3d3b5df5	0.0457439
113	0x3c37d6d9	0.011220657
114	0x3c985474	0.018594958
115	0xbd867195	-0.06564633
116	0xbd2952a8	-0.041338593
117	0x3c81d7a8	0.015849903
118	0x3c3bc972	0.0114616025
119	0x3abb258c	0.0014278158
120	0xbd67b972	-0.05657334
121	0x3d2695d0	0.040670216
122	0x3b4faed8	0.0031689908
123	0xbd436fb2	-0.047713943
124	0xbc69e0ea	-0.014274815
125	0x3c545e7c	0.01296198
126	0x3ddb86ca	0.10719068
127	0x3d9f5a9b	0.077809535
128	0xbd148202	-0.036256798
129	0xbb25996f	-0.0025268456
130	0xbc9c1128	-0.01905115
131	0x3dd2b09d	0.102875926
132	0xbcebc6ca	-0.028781313
133	0xbd181da2	-0.037137635
134	0x3c970138	0.018433198
135	0x3d116c0d	0.035503436
136	0x3c910fae	0.017707672
137	0x3cfb874f	0.030704169
138	0x3d699591	0.057027403
139	0x3ca8e024	0.020614691
140	0x3cf9a3e9	0.030473666
141	0xbcee9f10	-0.029128581
142	0xbd09d1b8	-0.03364727
143	0xbc8f09ed	-0.017460788
144	0x3d00b3f9	0.031421635
145	0x3d5ca6e2	0.05387009
146	0xbd537c52	-0.051632233
147	0xbce4714e	-0.02788606
148	0xbcfdbd46	-0.030974042
149	0x3d1ac8d8	0.037789196
150	0xbb95631b	-0.0045589334
151	0x3d960773	0.073256396
152	0x3d0d7e13	0.034544062
153	0x3cc94e8c	0.024573587
154	0xbd450edc	-0.048109874
155	0xbbc7493f	-0.0060817297
156	0x3d053287	0.03251889
157	0x3d8920c6	0.06695704
158	0x3cb6a123	0.022293633
159	0xbcc0325a	-0.02346151
160	0x3d466ffc	0.04844664
161	0x3d917c67	0.07103806
162	0x3ca1266d	0.019671643
163	0x3d787a4b	0.060663503
164	0x3d0e85f6	0.034795724
165	0x3c2c1db8	0.010505132
166	0x3c47125c	0.012150373
167	0x3d192e2a	0.03739754
168	0x3d1ac7d8	0.037788242
169	0x3d809218	0.06277865
170	0x3d614d3c	0.055005297
171	0x3cbb2c86	0.022848379
172	0x3d5befb9	0.053695414
173	0x3bdafad6	0.006682734
174	0xbcd7789d	-0.02630263
175	0x3c6efa93	0.014586109
176	0x3d33a60a	0.04385952
177	0x3d0b8a30	0.034067333
178	0xbcb9694b	-0.022633215
179	0xbd617376	-0.055041753
180	0x3d817aad	0.06322227
181	0x3d098f09	0.033583675
182	0xbdc9ed01	-0.09859658
183	0xbcc9c5e4	-0.024630494
184	0xbc834fbe	-0.016029235
185	0x3d5bf31e	0.05369865
186	0xbc4f3bb0	-0.012648508
187	0xbdd94438	-0.10608715
188	0x3cc8e2c7	0.024522198
189	0xbd81acde	-0.063318
190	0xbc31fb98	-0.010863207
191	0xbd942066	-0.07232742
192	0xbd514967	-0.051095393
193	0x3b940e28	0.004518289
194	0x3d20d969	0.03926984
195	0x3cee01fd	0.029053682
196	0xbd1bb971	-0.038018648
197	0xbd0b6919	-0.034035776
198	0x3d82cdb7	0.06386893
199	0xbce9341d	-0.028467232
200	0xbcef0dac	-0.029181324
201	0xbb387731	-0.0028147215
202	0xbcc8aade	-0.024495538
203	0x3d17746d	0.036976267
204	0x3b3ad1c3	0.0028506375
205	0xbbb487cd	-0.005509353
206	0xbd92c14f	-0.07165777
207	0xbb9e8caa	-0.004838546
208	0xbca5ce30	-0.02023992
209	0xbd56d059	-0.05244479
210	0xbcf5a729	-0.029986935
211	0xbc8f13ea	-0.01746555
212	0xbd8402e8	-0.06445867
213	0x3d310e0e	0.043226294
214	0xbd6dcba6	-0.058055542
215	0xbd88f81f	-0.0668795
216	0xbc81f3b2	-0.015863273
217	0x3ca029d4	0.019551195
218	0x3d4532b4	0.048144057
219	0x3c8dad3d	0.01729452
220	0xbd070e06	-0.03297236
221	0x3c82bd19	0.01595931
222	0x3d89a60c	0.06721124
223	0x3c60d4e7	0.013722635
224	0xbcff3133	-0.03115139
225	0x3d141d29	0.03616062
226	0xbd23538d	-0.039874602
227	0xbc2b7a99	-0.010466241
228	0x3c65f936	0.014036467
229	0x3d53e0ae	0.051727943
230	0x3d6231b7	0.055223193
231	0x3ad5c48d	0.0016309187
232	0x3d696ff5	0.056991536
233	0x3c9b5625	0.018961975
234	0xbd340c5b	-0.043957096
235	0xbc998047	-0.018737925
236	0x3d68a004	0.056793228
237	0x3c4422be	0.011971174
238	0x3cbd521d	0.023110444
239	0x3d01d649	0.0316985
240	0xbcae6db8	-0.021292552
241	0x3d65d610	0.05611235
242	0x3bce9b18	0.0063051097
243	0x3d078af4	0.0330915
244	0xbd6a7249	-0.057237897
245	0x3d0b2dec	0.03397934
246	0xbc8d50be	-0.017250415
247	0xbcee9c1b	-0.029127171
248	0x3d37fec0	0.044920683
249	0xbd77648b	-0.06039862
250	0xbd4ba190	-0.049714625
251	0xbdce42ae	-0.10071312
252	0xbdbf7312	-0.0934812
253	0xbc6ed07a	-0.014576072
254	0x3d1244f3	0.035710286
255	0xbd2f7776	-0.042838536

conv2.bias f4 [20]
0	0x3c6d4f22	0.014484199
1	0xbbac33f7	-0.005255218
2	0xbcece63f	-0.028918384
3	0x3d0147bd	0.031562556
4	0xbd4af28b	-0.049547713
5	0xbd57c127	-0.05267444
6	0xbca43311	-0.020043882
7	0xbd0a3bd6	-0.03374847
8	0x3ceb6e29	0.028739052
9	0xbd66a2cd	-0.056307603
10	0x3d08f480	0.0334363
11	0x3be18b2c	0.0068830457
12	0x3d270058	0.040771812
13	0x3d3424a1	0.043980245
14	0xbd491a99	-0.04909763
15	0x3d0bd0e5	0.034134764
16	0xbcc754ae	-0.02433237
17	0x3c13453c	0.008988675
18	0x3d05b796	0.032645784
19	0x3d343029	0.04399124

fc1.weight f4 [50, 320]
0	0x3d1b7bbc	0.0379598
1	0xbc956eb3	-0.018241262
2	0x3c50753e	0.012723265
3	0x3c833b87	0.016019596
4	0x3be6d07e	0.007043897
5	0xbcc8eab2	-0.024525974
6	0xbd1661db	-0.036714416
7	0x3cd81534	0.026377298
8	0x3d1f1b6f	0.038844522
9	0xbc703e5b	-0.014663304
10	0xbaa8efd8	-0.0012888862
11	0xbcb78bba	-0.022405494
12	0xbd0ed36c	-0.034869596
13	0x3db095eb	0.086223446
14	0x3d53b985	0.051690597
15	0xbc40b23b	-0.011761243
16	0xbc610e03	-0.013736251
17	0xbc13d2b9	-0.009022408
18	0x3cb27376	0.021783572
19	0xbd425f26	-0.047454022
20	0x3d417c23	0.047237527
21	0xbc470c97	-0.012148998
22	0x3b6924c7	0.00355749
23	0xbd17e9e9	-0.03708831
24	0x3c1f0d6d	0.009707791
25	0x3d4ebfb2	0.050475784
26	0x3d9ba493	0.075997494
27	0x3bf9dbe8	0.007625092
28	0x3d94691d	0.07246611
29	0x3e12810e	0.14307043
30	0x3ca39585	0.019968757
31	0x3c874e9e	0.01651698
32	0x3d4f58e9	0.0506219
33	0xbbb49c1b	-0.0055117733
34	0xbbb13e6c	-0.0054090526
35	0x3c557f0c	0.013030779
36	0x3d3f5659	0.046713207
37	0xbc44552c	-0.011983197
38	0xbcfebe69	-0.031096654
39	0xbd3e3688	-0.046438724
40	0x3d507817	0.050895777
41	0xbd530d70	-0.051526487
42	0xbdc82330	-0.097723365
43	0xbd1c6648	-0.03818348
44	0xbd7e3e4a	-0.062071122
45	0xbc5f112a	-0.013614932
46	0x3d0ca320	0.034335256
47	0x3dbaca31	0.09120596
48	0x3d70827d	0.058718193
49	0xbd179dde	-0.03701579
50	0xbd887795	-0.066634335
51	0xbd1b0e31	-0.03785533
52	0xbbba9dbb	-0.0056950725
53	0xbda06aa1	-0.07832838
54	0x3c82b93d	0.01595747
55	0xbd80ec49	-0.06295068
56	0x3d292bfc	0.041301712
57	0x3d97792e	0.0739616
58	0x3c1f61fc	0.009727951
59	0xbd27099f	-0.04078066
60	0xbb9bd95e	-0.004756137
61	0x3de046c8	0.109510005
62	0x3da441de	0.08020376
63	0xbc755d77	-0.014975897
64	0x3d05fefc	0.032713875
65	0x3cb4b631	0.022059532
66	0x3d2d2efe	0.042281143
67	0x3c9a7362	0.018853847
68	0x3cd080ec	0.0254521
69	0xbccbc18d	-0.024872566
70	0x3d26fd06	0.040768646
71	0xbbfe7789	-0.0077657145
72	0x3d47c2cd	0.04876976
73	0xbd6a6f29	-0.057234917
74	0x3cfb2c83	0.030660873
75	0x3c247aee	0.010039074
76	0xbce9b56a	-0.028528888
77	0x3d602967	0.054726984
78	0x3d0624e7	0.032750037
79	0xbcf0f789	-0.029414909
80	0x3d58c40f	0.05292135
81	0xbc0bea91	-0.008539812
82	0x3ba7e6e4	0.00512396
83	0x3c816039	0.015792953
84	0xbc9dfb8c	-0.019284986
85	0xbd7f6de6	-0.062360667
86	0xbc8adb14	-0.016950168
87	0xbc8cf436	-0.017206293
88	0xbd82c53b	-0.06385275
89	0x3ccf6f99	0.025321769
90	0xbd1d1833	-0.038353156
91	0xbd4ad903	-0.049523365
92	0x3d72ff54	0.05932553
93	0x3ce54d32	0.027990911
94	0xbd7f4689	-0.062323127
95	0xbce8a341	-0.028398158
96	0xbcc39514	-0.023874797
97	0x3d1bd354	0.038043335
98	0x3cc5b28e	0.024132993
99	0x3d21f132	0.039536662
100	0xbce08929	-0.027409153
101	0x3cef6b35	0.029225925
102	0xbcc2d218	-0.023781821
103	0x3b938e42	0.0045030424
104	0xbd715800	-0.058921814
105	0xbdd93af9	-0.10606951
106	0x3cd7217b	0.026261082
107	0x3bcd25f5	0.0062606283
108	0xbc97ddb5	-0.018538335
109	0x3d203da1	0.039121274
110	0x3d518abe	0.051157705
111	0x3cd7eaf4	0.026357152
112	0x3c2c579e	0.010518936
113	0xbc01d689	-0.007924684
114	0x3be2676d	0.006909302
115	0x3acea8cb	0.0015766857
116	0x3d243211	0.04008681
117	0xbc548cdf	-0.012973039
118	0xbd390917	-0.045174684
119	0x3c4b2741	0.012399496
120	0x3bf5f204	0.007505657
121	0xbdc616ad	-0.09672294
122	0xbc901f23	-0.017592972
123	0x3d3d7842	0.046257265
124	0xbd81637e	-0.06317805
125	0x3c9bc485	0.019014606
126	0x3d27b9e2	0.040948756
127	0x3db92895	0.090409435
128	0xbb0e083e	-0.0021672393
129	0x3cd6d7b7	0.026225908
130	0xbcbae4a2	-0.022814099
131	0xbca4f4db	-0.020136287
132	0x3b0ee384	0.002180309
133	0x3d051613	0.032491755
134	0xbc8f2aed	-0.017476523
135	0x3bbe3acf	0.0058053504
136	0xbdc121e3	-0.094302915
137	0xbcf46e99	-0.029837893
138	0xbd610a53	-0.054941487
139	0xbc793f94	-0.015212912
140	0xbd9d66ec	-0.076856464
141	0x3d1ac66f	0.037786897
142	0x3d46e4f2	0.048558183
143	0xbac1ee46	-0.0014795742
144	0xbc6c5caf	-0.014426394
145	0xbd49cf1f	-0.04926979
146	0xbcd9cf89	-0.026588218
147	0x3af6fa1d	0.001884285
148	0x3d2d25ca	0.042272367
149	0x3cd8287c	0.026386492
150	0x3da48f70	0.08035171
151	0x3cfec24a	0.031098504
152	0xbc5e3ec6	-0.013564771
153	0xbce775f6	-0.02825449
154	0x3c94c284	0.018159159
155	0x3de156a2	0.11002852
156	0xbdf6a4d2	-0.12043156
157	0xbd0d0204	-0.03442575
158	0x3d1b2272	0.037874646
159	0x3d765c8c	0.060146853
160	0x3d6082f8	0.0548124
161	0xbd02df27	-0.031951096
162	0x3b7c785a	0.0038523884
163	0x3cd55afb	0.02604436
164	0xbd5ad5ab	-0.053426426
165	0xbd65f51f	-0.05614197
166	0x3c55646a	0.013024429
167	0x3d668749	0.05628136
168	0x3beb11a3	0.0071737333
169	0xbcb9ecb7	-0.022695882
170	0x3d205491	0.03914315
171	0xbd252bf9	-0.04032514
172	0xbad25db8	-0.0016049659
173	0x3d8d572c	0.06901392
174	0x3cd9a6d0	0.0265688
175	0x3ca8e645	0.020617614
176	0xbd50f6cf	-0.051016625
177	0x3d3e6191	0.046479765
178	0xbc17fb34	-0.0092762
179	0xbc703c23	-0.014662775
180	0xbcab9fed	-0.020950282
181	0x3d32e7e5	0.043678183
182	0xbd4cf748	-0.050040513
183	0x3cb3bbe2	0.021940175
184	0xbd1e4103	-0.03863622
185	0x3d995831	0.07487524
186	0xbd043193	-0.03227384
187	0x3c716557	0.014733634
188	0x3d617312	0.05504138
189	0x3ccd0f43	0.025031691
190	0xbd8b4883	-0.0680094
191	0xbc765d37	-0.015036873
192	0xbd00394d	-0.031304646
193	0x3c7fadaa	0.01560537
194	0x3cffdced	0.031233275
195	0x3d58d6d9	0.05293927
196	0x3da5e24c	0.08099803
197	0x3d19528a	0.03743223
198	0xbbca56e6	-0.00617491
199	0xbd2d4bc0	-0.04230857
200	0x3c8f21f8	0.017472252
201	0x3ca385a7	0.019961191
202	0x3d97287a	0.07380767
203	0x3cae863a	0.021304239
204	0xbcfc2d80	-0.030783415
205	0x3ca0ade0	0.01961416
206	0xbd3ea0fc	-0.046540245
207	0xbc38a60e	-0.011270059
208	0x3d08c7f7	0.033393826
209	0x3d3d7962	0.046258338
210	0xbb13879e	-0.0022511254
211	0xbcd98907	-0.026554598
212	0xbbcafe9b	-0.006194902
213	0x3da56985	0.08076767
214	0x3dc61fa1	0.096740015
215	0x3d101dca	0.03518466
216	0x3d41a678	0.047277898
217	0xbcb1ce05	-0.021704683
218	0x3d3b2ee6	0.045699023
219	0xbb77602a	-0.0037746527
220	0xbdabb5ae	-0.08384262
221	0xbd82edfb	-0.063930474
222	0x3d07b7ef	0.033134397
223	0x3d68e39e	0.056857698
224	0xbd31d47a	-0.043415524
225	0x3ce39160	0.027779281
226	0xbd331852	-0.043724366
227	0xbb8c348d	-0.0042787255
228	0xbc7e425f	-0.015518754
229	0xbd493bf6	-0.04912945
230	0x3c49c05f	0.012313931
231	0xbc1dd42f	-0.009633108
232	0xbd6d9291	-0.058001105
233	0xbd6cb2d9	-0.05778775
234	0xbd832f98	-0.06405562
235	0xbc8b3289	-0.01699187
236	0x3c9f6626	0.019457888
237	0x3d04f09c	0.032456025
238	0x3c590553	0.013245898
239	0xbd3f4122	-0.046692975
240	0x3d544f84	0.051833645
241	0x3c79aba6	0.015238678
242	0x3d30b216	0.043138586
243	0xbc2d6067	-0.010582066
244	0x3d1fe4ef	0.039036687
245	0xbccb4ae0	-0.024815977
246	0xbd5be75e	-0.053687446
247	0xbb8697d8	-0.0041074567
248	0xbcb64d9e	-0.022253808
249	0x3da2dea4	0.079526216
250	0x3d917592	0.07102503
251	0x3caba236	0.020951372
252	0xbc720bec	-0.01477335
253	0x3d7f60af	0.062348064
254	0x3d2c608b	0.042084258
255	0xbcbab2cc	-0.022790335

fc1.bias f4 [50]
0	0x3d26f288	0.04075864
1	0x3d6bd8d9	0.05757985
2	0x3d3b935c	0.04579483
3	0xbd429a18	-0.047510237
4	0x3d5d8792	0.054084368
5	0x3cca41c7	0.024689568
6	0xbcb579b4	-0.02215276
7	0x3d3516aa	0.044211067
8	0xbc51748b	-0.012784134
9	0xbb909985	-0.004412832
10	0x3d6ee0e3	0.058319937
11	0x3d6d7bbe	0.057979338
12	0xbc745cfe	-0.014914749
13	0x3d276f6f	0.040877756
14	0xbc9415c5	-0.018076787
15	0xbce30295	-0.027711192
16	0xbc7f24d4	-0.015572745
17	0x3d1362fb	0.035983067
18	0xbca72bbb	-0.020406594
19	0xbd17ea05	-0.037088413
20	0xbce80d61	-0.028326692
21	0xbd2ca877	-0.042152848
22	0x3d39d316	0.045367323
23	0xbd386310	-0.04501635
24	0x3d0e1e3c	0.034696802
25	0xbd1be080	-0.038055897
26	0x3c942b58	0.018087074
27	0xbc8f78fb	-0.017513743
28	0xbb36db28	-0.0027901623
29	0x3cf15558	0.02945964
30	0xbd318787	-0.04334214
31	0xb9ac2680	-0.0003283508
32	0xbc2f01eb	-0.01068161
33	0xbc967cd3	-0.018370068
34	0x3cf8731e	0.03032833
35	0x3c1875f8	0.00930547
36	0xbcec891b	-0.02887397
37	0x3d2a279f	0.041541692
38	0x3a833a47	0.0010011875
39	0x3caf4ad3	0.021397984
40	0xbd1ab611	-0.03777129
41	0x3b442ef9	0.0029935224
42	0xbd0093e0	-0.031391025
43	0xbd384a3c	-0.04499267
44	0x3d006340	0.031344652
45	0xbd47f101	-0.048813824
46	0xbc86f0a2	-0.016472165
47	0x3d51d2af	0.051226314
48	0xbd3aeacd	-0.04563408
49	0x3d67e8ed	0.05661862

fc2.weight f4 [10, 50]
0	0xbd9cb08b	-0.076508604
1	0xbe5bdf5c	-0.21471924
2	0x3e268cd8	0.16264665
3	0x3ced4936	0.028965574
4	0xbd81c55f	-0.06336474
5	0x3c1b428f	0.009476318
6	0xbdb7a209	-0.08966453
7	0x3c2ea5f7	0.010659686
8	0xbcad3b94	-0.021146573
9	0x3e191bce	0.14952013
10	0x3b6c56f6	0.0036062575
11	0xbe939a7e	-0.28828806
12	0xbc054c2a	-0.008135835
13	0x3d81d804	0.0634003
14	0x3dda26f9	0.10651965
15	0x3d496333	0.04916687
16	0x3bcb1a00	0.006198168
17	0x3d297100	0.04136753
18	0x3dbea4f5	0.09308807
19	0xbda69c88	-0.08135325
20	0x3d8abe14	0.06774536
21	0xbcd14686	-0.025546324
22	0x3e3f248a	0.18666282
23	0xbc7f0831	-0.015565918
24	0x3e11a85e	0.14224383
25	0xbd614bdf	-0.055003997
26	0xbe7e753b	-0.24849407
27	0x3ce1c9d9	0.027562069
28	0xbc558f53	-0.013034659
29	0xbd839435	-0.064247526
30	0xbe42dc19	-0.19029273
31	0x3d498967	0.049203303
32	0x3e0b8f39	0.13628854
33	0x3df14700	0.1178112
34	0x3e556f30	0.20843196
35	0xbdfcbb62	-0.12340428
36	0xbd1a8963	-0.03772868
37	0x3e3fee0c	0.18743151
38	0x3e160030	0.14648509
39	0xbdba30b3	-0.0909132
40	0x3d9dee16	0.07711427
41	0xbb8fd71a	-0.004389656
42	0x3cc2a756	0.023761433
43	0xbcd55b43	-0.026044494
44	0x3d99e1b0	0.075137496
45	0xbdc81edf	-0.09771513
46	0xbd61fd15	-0.055173
47	0x3d3d2c90	0.046185076
48	0xbd474b50	-0.048655808
49	0xbe1e4d4d	-0.15459175
50	0x3dddb57c	0.10825631
51	0x3ca9e2ea	0.020738084
52	0xbd8a4bdb	-0.067527495
53	0x3c8dfab8	0.017331466
54	0x3e2189b9	0.15775193
55	0xbe0493d9	-0.12947024
56	0x3d9318cc	0.07182464
57	0x3e186ed5	0.14886029
58	0x3e3dfb7b	0.18552963
59	0x3e30005d	0.17187639
60	0x3dcb7489	0.09934337
61	0x3d25fee3	0.040526282
62	0x3dc7704f	0.09738218
63	0x3ded458a	0.11585529
64	0xbe6c2a0b	-0.23062913
65	0xbe265861	-0.16244651
66	0xbdaa0d23	-0.08303287
67	0x3de17782	0.110091224
68	0x3da495d1	0.08036388
69	0xbe055cab	-0.13023631
70	0xbe70c671	-0.235132
71	0xbdd3a1a3	-0.10333564
72	0x3d8dc924	0.0692313
73	0x3db59630	0.088665366
74	0x3e641bf3	0.22276287
75	0x3d64808f	0.055786666
76	0xbcbf8b97	-0.023381991
77	0x3d88b29b	0.06674691
78	0xbe8cf92d	-0.27533856
79	0x3df1cec2	0.11807014
80	0xbe110849	-0.14163317
81	0x3dd15fb2	0.102233306
82	0xbe0e10a8	-0.13873541
83	0x3da0275f	0.078200094
84	0xbd4db55d	-0.05022179
85	0x3e18a2a3	0.14905791
86	0xbd915c62	-0.07097699
87	0xbe9362e3	-0.28786382
88	0x3e0eacfd	0.13933177
89	0xbca18d80	-0.019720793
90	0x3d62f5d1	0.05541021
91	0x3e66d939	0.22543801
92	0xbcb5c5b5	-0.022189
93	0x3ddea1a9	0.10870678
94	0xbd8ff207	-0.07028585
95	0xbcda719d	-0.026665503
96	0x3e36aca3	0.17839293
97	0xbdcad77f	-0.09904384
98	0x3e38bd06	0.18040857
99	0xbda5e3ba	-0.08100076
100	0x3e81faec	0.2538675
101	0xbe7dd61f	-0.24788712
102	0x3d9fc292	0.07800783
103	0x3e19f09b	0.1503319
104	0xbe0acbb9	-0.13554277
105	0xbe52b3c8	-0.20576394
106	0xbb7ead04	-0.003886045
107	0xbdef6c7b	-0.11690613
108	0x3e6901ca	0.22754589
109	0xbddfe69e	-0.109326586
110	0x3d4fa585	0.05069496
111	0x3c678cf6	0.014132729
112	0xbdcbf662	-0.09959103
113	0xbd17c993	-0.03705747
114	0x3b6cb4ab	0.0036118429
115	0xbd80782e	-0.062729225
116	0xbdc7b697	-0.09751623
117	0xbd0bb38d	-0.03410678
118	0xbe14acca	-0.14519039
119	0xbe0593d7	-0.13044678
120	0x3e4db516	0.2008861
121	0x3da6b7a5	0.08140496
122	0x3e1bbb30	0.15208125
123	0xbe237e2e	-0.15966102
124	0xbce00426	-0.027345728
125	0x3e2ceb99	0.16886748
126	0x3c78da48	0.015188761
127	0xbe1f90cf	-0.15582584
128	0x3e1dca16	0.15409121
129	0x3e3e3998	0.18576658
130	0xbe82d1b1	-0.25550607
131	0xbdca9cd5	-0.098931946
132	0x3d1d63a4	0.038425103
133	0x3d9f59df	0.077808134
134	0xbd5a9301	-0.05336285
135	0x3e010e36	0.12603077
136	0xbcaf51ea	-0.021401364
137	0xbdfc2c4b	-0.12313136
138	0x3d3b0f92	0.045669146
139	0x3e5a60f3	0.21326046
140	0x3aa0cb95	0.0012267703
141	0x3e2d5ae0	0.16929197
142	0x3e585c86	0.21129045
143	0xbe805ae8	-0.25069356
144	0x3c80a407	0.015703214
145	0x3d63124e	0.05543738
146	0xbd2072b3	-0.039171886
147	0xbcb65037	-0.022255046
148	0x3dfd528d	0.12369261
149	0xbe6b2a7a	-0.22965422
150	0xbe151da2	-0.14562085
151	0x3de40f6a	0.111357525
152	0xbe04dd40	-0.12975025
153	0x3e20d312	0.15705517
154	0x3e5cc9c4	0.21561342
155	0xbe476adf	-0.19474362
156	0x3d2e6b53	0.04258282
157	0xbd820ecc	-0.063504785
158	0xbe19e913	-0.15030317
159	0xbda16a00	-0.07881546
160	0xbd818755	-0.06324641
161	0x3d2cde99	0.042204473
162	0xbda1b7b0	-0.07896364
163	0x3d10deaf	0.035368618
164	0x3b90015b	0.004394693
165	0x3d4a07b9	0.04932377
166	0xbca4c308	-0.02011253
167	0x3e024757	0.12722526
168	0x3cc4e93f	0.024037002
169	0xbdfd5d32	-0.12371291
170	0xbe042d5f	-0.12907933
171	0x3d4fe11b	0.050751787
172	0xbd71b308	-0.059008628
173	0xbd99b2e3	-0.07504823
174	0xbe388615	-0.18019898
175	0xbd93864b	-0.07203349
176	0x3e9d9416	0.30777043
177	0xbe68d410	-0.22737145
178	0x3dcea981	0.10090924
179	0x3d1c2f9b	0.038131338
180	0xbddde185	-0.1083403
181	0x3d949bb6	0.07256262
182	0xbc9084af	-0.017641393
183	0xbd86ca65	-0.065815724
184	0x3d11f621	0.035635117
185	0xbdfb8c1d	-0.12282584
186	0x3e85f9fd	0.26167288
187	0x3e4af1d5	0.19818814
188	0x3e1913ee	0.14949009
189	0x3e1ce522	0.15321782
190	0xbd8a0268	-0.0673874
191	0xbda3855e	-0.07984422
192	0x3d21ec60	0.039532065
193	0xbe2bf690	-0.16793275
194	0xbdf19b78	-0.117972314
195	0x3e44ec63	0.192308
196	0x3e014a92	0.12626103
197	0xbe029356	-0.12751517
198	0xbdb3cb01	-0.08778954
199	0x3c8ffeea	0.017577607
200	0xbe2b4f97	-0.1672958
201	0xbd94f4bd	-0.072732426
202	0x3a5bcfe4	0.0008385165
203	0xbe35799f	-0.17722176
204	0xbe1c1c74	-0.15245229
205	0xbd2be1ba	-0.041963317
206	0xbd446ed0	-0.04795724
207	0xbd76e77d	-0.06027936
208	0xbe045763	-0.1292396
209	0x3d728da5	0.059217114
210	0xbda9073a	-0.082533315
211	0x3e62f428	0.2216345
212	0x3d30b7a1	0.043143872
213	0xbda7641a	-0.0817339
214	0xbe6b1bb4	-0.22959787
215	0xbe0e2670	-0.1388185
216	0x38e39000	0.000108510256
217	0xbe503271	-0.20331742
218	0xbdda5940	-0.10661554
219	0xbe0af159	-0.1356863
220	0xbd8703e4	-0.06592539
221	0x3dbe8ca2	0.09304167
222	0xbe061541	-0.13094045
223	0xbb2cb4dd	-0.002635292
224	0x3e3f2f6e	0.18670437
225	0x3d8fbd26	0.07018499
226	0xbd4282f6	-0.047488175
227	0x3de91f67	0.11382943
228	0x3e0e5f74	0.139036
229	0xbd0c95ae	-0.034322433
230	0x3e10a8a1	0.14126827
231	0x3dbc32ca	0.09189375
232	0xbc5798c6	-0.013158983
233	0xbe108cfc	-0.14116281
234	0x3e07e7c8	0.13272011
235	0x3e85a1d8	0.2610004
236	0xbe373c1f	-0.17894028
237	0xbdce57b1	-0.100753196
238	0xbdfb822c	-0.12280688
239	0xbda47921	-0.08030916
240	0xbb87ea44	-0.0041477997
241	0xbcda184f	-0.02662292
242	0xbe643517	-0.22285877
243	0x3e0be4c3	0.13661484
244	0x3caff59e	0.021479424
245	0xbe215cb4	-0.1575802
246	0xbe063a45	-0.13108166
247	0x3d8d787f	0.069077484
248	0x3d303245	0.04301669
249	0x3e46d176	0.1941584
250	0xbe69d91e	-0.2283673
251	0x3c4c3bae	0.012465401
252	0xbd7a796c	-0.061150953
253	0x3e0274d3	0.12739877
254	0x3caac0b7	0.020843847
255	0x3e1bc21f	0.1521077

fc2.bias f4 [10]
0	0x3d97bf84	0.074095756
1	0x3dba6947	0.09102111
2	0x3d1f6d0c	0.038922355
3	0xbdc233cd	-0.094825365
4	0x3d4643f4	0.04840465
5	0xbcffebd0	-0.031240374
6	0xbe14b72a	-0.14522997
7	0x3c617f71	0.013763295
8	0xbd660d11	-0.056164805
9	0xbdbcdef4	-0.092222124
