CNN/pytorch/mnist_cnn_preloaded_cuda.pth (torch, 90576 bytes, 8 tensors)

conv1.weight f4 [10, 1, 5, 5]
00000000: b1ab b53d 93e9 3c3e 2ec7 d2b9 2214 41bd
00000010: b1b9 723e 3f25 3fbd 8c08 603e 8dc5 213e
00000020: 7feb 843e 3520 303d 047a 2abe ed62 6f3d
00000030: 5e11 7e3d 10ee c13d c710 8abd 7943 343e
00000040: 38c6 e9bd c96b 143e 97b1 d23d 2cb1 7b3d
00000050: 211d 3dbe 29a8 a53c 8ef4 5dbd 9c38 17bd
00000060: c08e 1b3e 9869 753e c370 a53e 9cc0 133e
00000070: 317f 743e dc60 893d cfd5 833d dd76 8b3e
00000080: 2db9 333d d4ae b63e 9fa9 903e 4588 44be
00000090: e216 f6bd ae54 1bbb e8cc 1dbe 85ee 823e
000000a0: bad6 94bd c6fe 0abe 5deb 53bd 6209 4c3d
000000b0: a05a 87bb 6b05 fdbd eace 423c 60d5 18be
000000c0: 5c75 60be b020 1a3e 4bed e3bd 4150 82bd
000000d0: 561b edbd de17 093c 54fd 123e 618d 1fbd
000000e0: c031 00be b734 203e 6e60 4cbd f817 49bc
000000f0: 1696 21be 75f4 1abe 8ad2 09be 0768 54be
00000100: e5c5 3dbe 994d 523d c7ea dd3d e07d d8bd
00000110: eb66 0abe 8a28 1f3d 23be 4c3e 6ef8 543c
00000120: 4e63 983e 1f5c 823e 1cb3 d03d 59a8 b43d
00000130: 6b8e d9bc b7b1 16be 189e 913e c337 113e
00000140: 2db0 07be 3054 34be 0f80 05be d1f6 823e
00000150: c63b a73e 6d4a 44be 9105 ccbd 8774 b3bd
00000160: d608 d73d f7ad a03e c923 f7bd cd32 103a
00000170: 7707 17be 2498 863e f578 5c3d 78ee a33c
00000180: 21fd 1abe 4d73 83bd bd75 8b3e 0bf4 0d3e
00000190: 595e 1fbe da4c a63d a412 ad3b b0d8 5c3e
000001a0: 8a2f 803d fc58 8fbe 231d 523c 82a6 4c3e
000001b0: 64dc 883e aa03 5b3e 1938 a1be 7b59 1cbe
000001c0: 33c0 0a3e e82f 833e d16c 0d3e efb2 47be
000001d0: 3d26 5fbe ddcf f13c 5b31 9d3e f067 5c3e
000001e0: 4158 50be 8918 9e3c b960 013e 3db1 883d
000001f0: 6f99 833e 5c06 003e 70b5 87b9 66e5 87bd
00000200: 9433 953d 19d8 a2be 17fa 3e3e 0504 3b3d
00000210: 9181 053e e452 50be 8be5 3bbe fcc6 b43d
00000220: 7f0f 893d e98f 383d f469 30be 81d3 8ebe
00000230: b7b5 203e faba 683e 098e d53e 2dd7 763e
00000240: e4a4 163d 70f6 b53c 58f3 283e e111 d63e
00000250: 32da a43e 24c5 5a3e 700c 523d 6397 6cbe
00000260: 4400 55be 62a4 e53b a73f 893d fb64 96be
00000270: 5bfb 21be 3344 283d d3fe 193e 5634 243e
00000280: b15d 97bd 34cb 5cbd 820f 2c3e b656 5b3e
00000290: 9ace 133e eacb 7d3e 1ef9 d73e 67cb cc3e
000002a0: 886e 953e 0252 1fbd 35ab 873e 470d f63e
000002b0: cceb a33e 8f8c 7e3e cbd3 9b3e 3c62 08bd
000002c0: efc7 883e f228 873e 29c1 5f3e 0c6c 3a3e
000002d0: 2a60 9f3e 138d 573e 4d73 f43d b3c2 fdbd
000002e0: ce23 10be c3eb a73e 494a d53e ba80 d03c
000002f0: 6bfe 48be 8907 cbbd cc73 623e 5e81 9f3d
00000300: 6b95 bbbd 6fc2 f7bc 7138 903d a2b3 0abd
00000310: 495f 623e ff45 803e 21fa 24bd f956 953d
00000320: 9ba1 263e 468f 843d 74e0 e3bb e9a1 1b3e
00000330: 8069 aabc f078 e2bd 6f2d a33c 9181 623d
00000340: eae1 713c 1148 b33d e526 c6bd e357 5dbe
00000350: ba87 e6bd f395 59bb ce80 8b3d 65aa 923d
00000360: fe01 0c3e f074 29be 7524 14bd d81c 563d
00000370: eed0 f3bd 2f83 d6bd 257f 943d e21d 4dbe
00000380: 8eb5 19be df4b 1a3d 22bd dc3d d238 98bc
00000390: 8ade 87be 46b2 24be a841 9dbd c64c 6e3e
000003a0: 4458 f53d a5ba 4fbe 9b31 7fbe c2f4 ddbd
000003b0: b97a d33c 7489 8e3e 1b51 bc3d 99f7 97bd
000003c0: 8cc0 c73d d5a1 20be b7a1 84bd 9693 973e
000003d0: c236 c83e edc7 d5bd 39c3 3a3e 59c8 ec3d
000003e0: ee33 893e 9832 b1bd
0.08870638 0.18448476 -0.00040202722 -0.04713834 0.23703648 -0.04666638 0.2187826 0.15798016
0.2596092 0.042999465 -0.16648108 0.058443952 0.06202828 0.09469235 -0.06741481 0.17603864
-0.1141476 0.14494242 0.10287779 0.06144826 -0.18468143 0.020221787 -0.054188304 -0.03691922
0.15191174 0.23966062 0.32312593 0.14428943 0.23876645 0.067079276 0.06437265 0.27239123
0.04387777 0.35680258 0.2825441 -0.19192608 -0.12016083 -0.0023701596 -0.15410197 0.255726
-0.07267518 -0.13573751 -0.05173813 0.049813636 -0.0041306764 -0.12354549 0.0118901525 -0.14925146
-0.21919769 0.15051532 -0.111292444 -0.063629635 -0.115774795 0.008367507 0.1435445 -0.03895319
-0.12518978 0.15645109 -0.04989665 -0.012273781 -0.1577991 -0.15132315 -0.1345922 -0.20742808
-0.18532522 0.051343534 0.10835796 -0.10570884 -0.13515823 0.03885702 0.19994406 0.012998683
0.29763263 0.25460908 0.101904124 0.08821172 -0.026557168 -0.1471623 0.28440928 0.14181428
-0.132508 -0.1761024 -0.13037132 0.2557893 0.3266279 -0.19169016 -0.09961999 -0.0876246
0.10499732 0.31382725 -0.12067372 0.0005500734 -0.14748941 0.2628795 0.05382629 0.020011172
-0.15135624 -0.06418476 0.27238265 0.13862626 -0.15563335 0.08120127 0.005281763 0.21567035
0.06259067 -0.27997577 0.01282433 0.19985393 0.26730645 0.21388116 -0.31488112 -0.15268509
0.1354988 0.25622487 0.13811041 -0.19501851 -0.2179193 0.029518062 0.30701718 0.21524024
-0.20346166 0.019298809 0.12634553 0.066744305 0.25702998 0.12502426 -0.00025884388 -0.06635551
0.07285228 -0.31805494 0.18650089 0.04565813 0.13037707 -0.2034412 -0.18349282 0.08827016
0.06692409 0.04505912 -0.17227918 -0.2789574 0.15694319 0.22727576 0.41709927 0.2410552
0.036778346 0.022212237 0.16499078 0.41810516 0.3219772 0.21364266 0.051281393 -0.23104624
-0.20800883 0.0070081213 0.06701594 -0.29373917 -0.15818541 0.041080665 0.15038614 0.1603559
-0.07390917 -0.053904727 0.16802791 0.21419796 0.14434281 0.24784818 0.4218225 0.39998934
0.2918589 -0.038896568 0.26497808 0.48057005 0.32015836 0.24858306 0.30435023 -0.03329681
0.26715037 0.26398426 0.21851029 0.18205279 0.31128055 0.2104991 0.119360544 -0.123906516
-0.14076158 0.3279706 0.41658238 0.025452007 -0.19628303 -0.099135466 0.22114486 0.07788347
-0.091593586 -0.03024408 0.07042015 -0.033862717 0.22106661 0.25053403 -0.040277604 0.07291979
0.16272585 0.0647264 -0.006954247 0.15198483 -0.02080226 -0.11058223 0.019919125 0.055299345
0.014763335 0.0875398 -0.09675387 -0.21615557 -0.112563565 -0.003320095 0.06811677 0.071614064
0.13672635 -0.16548514 -0.03616758 0.0522736 -0.119050846 -0.1047424 0.072508134 -0.2003093
-0.15010664 0.037670013 0.10778262 -0.018581782 -0.2653697 -0.16083631 -0.076785386 0.23271474
0.11979726 -0.20286043 -0.24921267 -0.108376995 0.025815355 0.27839243 0.09195157 -0.074202724
0.09753522 -0.15686734 -0.06476157 0.29604787 0.39104277 -0.104385234 0.18238534 0.11561651
0.26797432 -0.08652228

conv1.bias f4 [10]
00000000: fafc 793d 7e12 a1bd b734 09be f628 ecbd
00000010: 2ffb 8a3d 6eb9 b9bd b1bf 2b3e b314 a1bd
00000020: bbc7 9cbc d72c d53c
0.061032273 -0.07864855 -0.13399015 -0.1153125 0.06786191 -0.09068571 0.16772343 -0.07865276
-0.019138208 0.026022358

conv2.weight f4 [20, 10, 5, 5]
00000000: 0184 58bd d350 fcbc 79e6 e8bc f162 fcbb
00000010: 5998 24bd 9278 333d 4ac2 2a3c d5f8 913c
00000020: fead dc3d 7adf 583c 9e49 13bd 1571 22bd
00000030: 4761 a23c 0222 1f3d a1ac a63d 3a80 66bd
00000040: 1105 3bbd f3e4 82bd a64d 363d 7e92 39bd
00000050: 18fe 23bd 0176 e83b fd69 343c dfec a3bd
00000060: 6aa5 aebd 4158 973b 3a03 4abd a927 eebc
00000070: 80c4 58bd 93b8 63bd b9fa b1bb 5f56 f93d
00000080: c72a 0d3e 5d3d fe3c 40d2 ce3d e844 4a3d
00000090: 5918 843d 5317 cb3d 4ba3 d63d 8c66 b53d
000000a0: 214f e9bc 917d 5bbd 83aa 96bd c634 d1bc
000000b0: 40f5 2f3d 4905 21bd f76b 78bc b37b ec3c
000000c0: 6c3a 5fbc 8a5a babd 6382 d13c a6a7 a43d
000000d0: 1c05 e63d 91b5 b03d 46dc 393d 3bd3 87bd
000000e0: 2de8 80bd 58b2 ca3b 2b24 42ba 5c0c e4bc
000000f0: e8e6 a73d 4c62 d93c 2868 4abd 4666 8f3c
00000100: ba9b 323d f177 1d3d 4785 c03c decd 0cbc
00000110: ee13 9d3d 2b1e 7a3d b71b 20bd a881 3c3d
00000120: f2de 87bc a483 533b a16a 843d f7e9 65bd
00000130: 1e72 68bd 4cff a33b 55c8 8dbc fd08 34bd
00000140: 4784 a43b 31ce 453d 714e 80bd 842a 49bd
00000150: 2749 61bc 8d95 433c 3008 89bb 5b2c f5bc
00000160: 14dd 4cbd 403a 9f3a deb6 96bc 82ca 9ebd
00000170: d0f2 54bd 2eba 1b3d becc 123d 065f 42bd
00000180: 5892 f6bc 30c7 b6bb 2cc0 273d 35db 5f3d
00000190: b0f2 a83c 53c3 3d3d eb9e 4ebd 7e2c acbd
000001a0: 1c91 003d 9925 113d 8681 533d 8518 c2bc
000001b0: 60ac 1b3d a31b 73bd dcec 81bd b4f0 023c
000001c0: ccf5 653d 0b1c a3bc ef80 22bd f873 c5bd
000001d0: 0e42 d7bd 0dc4 4abc 4d70 0d3d 7c5d 2a3d
000001e0: de85 20bd 403a 253d ac37 84bd 6bcd 8ebd
000001f0: 15c5 79bc 4633 953d 2fd2 6c3d da85 023e
00000200: d68a 4b3d d8de c53d 43a2 bebc 3918 96bd
00000210: 9a88 d63c f522 2a3c d761 503d 291d 5bbd
00000220: 9334 69bc 0bf6 bd3b 2721 4c3c e334 66bd
00000230: ed66 1b3d ef76 a3bd 5fa0 bcbd c1f1 9dbd
00000240: 32a7 70bd cea4 18bc 795a 90bc c172 853d
00000250: 4ce1 63bd 3bb9 c5bc 8abb 983d 5e60 1a3e
00000260: aefc 2f3e 29e0 183e dccd 993d 8d9f 8abd
00000270: 3637 a2bc 174c 42bd 5fdd 9b3d ce86 7e3d
00000280: b4f5 cdbd 8d48 38be 681c 84bd 29c8 c4bd
00000290: c392 8a3c 497d 3cbb c71b 0f3d 74ea 343d
000002a0: c33d 7d3b c0a5 a23c 1b71 133d 5c3a 143d
000002b0: aa9a bc3d 627f ca3d 2ef1 50bd 21fd 6a3c
000002c0: 52b5 313d 9646 2fbd 24ad 2f3b e4ad 303d
000002d0: 26d7 b53c d0a5 fe3c bfef 9b3d ca95 de3d
000002e0: 7ad6 c03c d750 8abd 54f0 89bd 14f2 a8bd
000002f0: cd58 bbbd 8f6a 30bc ec3d e0bd 7a93 e6bd
00000300: 9799 10be c56b 06bd 8123 203b d925 7dbd
00000310: a04c 063a b446 8dbb 1056 f7bc 1254 4abd
00000320: e112 cc3c 6cf7 23bd 53d5 8b3c 5582 98bc
00000330: 201b 35bd ff22 9f3b 1656 7b3d 366d fa3c
00000340: 7bca 603d 553a 353c 887b a4bc abc0 a33d
00000350: eb97 833d 4255 6f3d e5c5 dabc b0c6 7ebd
00000360: bcc8 e2bb 3f8d ca3c 87b2 c63c 3978 bf3c
00000370: 6344 f93c 42f3 503c 4841 493d f54a 563d
00000380: 4593 3c3d ef09 063d 6773 493d a56f 783d
00000390: 490a e3bb 9d20 f6bc e902 e9bc c01e 5f3d
000003a0: 2c3b 613d 3674 c93c 980d 403d 7d4b f6bc
000003b0: 4963 81bd c950 9ebc 514e 033b 1e3d de3c
000003c0: e95b f7bb 4ac3 123d e8df a0bd 1500 85bd
000003d0: c42b 063d 0497 02bc 993f 893d 988c 19bd
000003e0: 8f9a f13c 2ab8 233c 07ff 323d 8daa a5bc
000003f0: 17a2 8bbd d7f5 db3c 7a9c ec3b 30f8 e43b
-0.052860264 -0.030800259 -0.02843021 -0.0077022244 -0.040184353 0.043816157 0.010422299 0.017818848
0.10775374 0.013236875 -0.03595888 -0.039658625 0.019821776 0.03885079 0.08138395 -0.05627463
-0.04565913 -0.06391325 0.044507645 -0.04530572 -0.040037245 0.0070941453 0.011011598 -0.08004164
-0.08527644 0.004618675 -0.049319483 -0.029071646 -0.052921772 -0.055595946 -0.0054315 0.12174677
0.1378585 0.03103512 0.10098696 0.04938212 0.064499564 0.09916558 0.104803644 0.0885745
-0.028480114 -0.053586546 -0.07356741 -0.02553786 0.042958498 -0.03931168 -0.01516246 0.028867578
-0.013624769 -0.090993 0.025574869 0.08039789 0.11231443 0.08628381 0.045376085 -0.06632086
-0.06294284 0.006185811 -0.0007405902 -0.027837925 0.08198339 0.02653613 -0.049415737 0.017504822
0.043605544 0.038444463 0.023501052 -0.008594004 0.07669817 0.061063927 -0.03908893 0.046022087
-0.0165858 0.003227451 0.0646565 -0.05613133 -0.056749456 0.005004799 -0.01730744 -0.043953884
0.0050206515 0.048292343 -0.062649615 -0.04911281 -0.013750351 0.011937511 -0.004181884 -0.029928377
-0.050015524 0.0012148097 -0.018397745 -0.07753469 -0.051989377 0.03801935 0.03583979 -0.047453903
-0.030099079 -0.005577944 0.040954754 0.05465241 0.020623535 0.046328854 -0.050444525 -0.08406924
0.031388387 0.035436247 0.051637195 -0.023693332 0.038006186 -0.05935253 -0.063440055 0.007991958
0.056142613 -0.019910833 -0.039673742 -0.0964126 -0.10510646 -0.012375844 0.034530926 0.04159306
-0.039190166 0.040338755 -0.06455931 -0.06972774 -0.015244742 0.0728517 0.057817634 0.12746373
0.04969295 0.09661645 -0.023270732 -0.07328839 0.026188184 0.010384311 0.050874557 -0.053494606
-0.014233726 0.005797153 0.012459076 -0.05620278 0.037939955 -0.07981669 -0.09210276 -0.077121265
-0.0587532 -0.009316636 -0.017621266 0.06516028 -0.05563478 -0.024136176 0.07457645 0.15075824
0.17186233 0.1492926 0.07509968 -0.06768713 -0.019801717 -0.047435846 0.076105826 0.06214028
-0.1005663 -0.17996426 -0.064507306 -0.0960849 0.016915685 -0.00287612 0.0349386 0.044168904
0.003864155 0.019854426 0.035996538 0.03618847 0.09209187 0.098875776 -0.051011257 0.014342577
0.04338581 -0.042791925 0.002680608 0.043134585 0.022197317 0.031084925 0.07614087 0.10868414
0.02353977 -0.067537 -0.06735292 -0.08249298 -0.09147797 -0.010767593 -0.10949311 -0.11258598
-0.1412109 -0.03281762 0.0024435224 -0.061803672 0.00051231124 -0.004311407 -0.030192405 -0.049396582
0.024911346 -0.04003088 0.017069494 -0.018616835 -0.04421532 0.004856467 0.061361395 0.030569654
0.0548806 0.011061271 -0.020078436 0.07995733 0.064254604 0.058430918 -0.026705692 -0.062201202
-0.006920902 0.024725555 0.02425505 0.023372756 0.030428117 0.01275331 0.049134523 0.05231758
0.046038885 0.032724317 0.049182322 0.060653348 -0.0069287163 -0.030044848 -0.02844377 0.054472685
0.05498807 0.024591547 0.046887964 -0.030065292 -0.06317765 -0.01932563 0.0020035694 0.027128752
-0.0075487983 0.035830773 -0.07855207 -0.06494156 0.032756582 -0.007970575 0.067015834 -0.037487596
0.029492645 0.009992639 0.043700244 -0.020222927 -0.068180256 0.026850624 0.007220802 0.006987594

conv2.bias f4 [20]
00000000: ab5d c93c 9de5 f2bb f5ff 643c 2a80 a53c
00000010: f10a 2b3c 5554 c43c 701a c0bc a809 eabc
00000020: 325a e23b b361 2bbc 228c 0bbd bd9f 6c3d
00000030: 2278 88bc 93cd 2dbd 8c20 803d 946a 34bd
00000040: 68e8 5ebc 2041 963c c21a 8bba a104 e4bc
0.024580797 -0.007412626 0.013977041 0.020202715 0.01043962 0.023965994 -0.023450106 -0.028569058
0.006907725 -0.010460305 -0.034069188 0.057769526 -0.016658846 -0.04243238 0.06256208 -0.044046953
-0.013605215 0.0183416 -0.0010612833 -0.027834238

fc1.weight f4 [50, 320]
00000000: 3c6a 353d 43c4 703c 4fb5 8d3b c83a d93c
00000010: 87a3 9bbc a9e8 313d e7de e3bc 8b7c d53c
00000020: a96a 923c 934f 223d 5410 a93d 16b3 933d
00000030: 8122 343d a9f3 233d e134 853b 0e48 2b3c
00000040: 1170 583d bf4f 4bbc 05cb 41bc eacc 28bd
00000050: 9ac7 b13d e337 8a3d de5b 25bd e1f7 ebbc
00000060: 0113 de3c ea86 103c 1d4a 32bd ec62 eb3c
00000070: 66c5 dc3c 809b e7bc a18e a3bb 9c8f 1b3d
00000080: ba4f e0bc c75f 7d3d 4191 0c3d e7d2 103d
00000090: 6c78 d0bb 4bcd 8cbc 4351 81bc b551 1abc
000000a0: 5d0c aa3d 0744 28bd 4d66 373d 66de 453d
000000b0: b374 e0bc f612 71bd cd21 cabc 9a25 273d
000000c0: 211c 873d 9ccc 88bb 6f2b b33b 0a2d 383d
000000d0: ee9d 5cbb 2921 513d 8456 5a3d 9e49 23bd
000000e0: 5e1c d23c a997 48bd 428c 3bbd 6516 903c
000000f0: 28fe f33b 5529 16bd 6932 fabc a248 c23c
00000100: c94b b0bb 7304 823d 61eb 3e3d 32dc 2b3c
00000110: 6b40 733d fe0b 343d c1fe cabb 84cb 263d
00000120: 592d 8f3d 29e8 ab3c c336 963d dacb 9cbb
00000130: c792 82bd 77a6 02bd 8800 57bd 2d96 0abd
00000140: a101 b6bc cf5b b9bc 2679 f13c 84f7 443c
00000150: a13e 1f3d 1101 053d bf8a a8bc e5f5 3fbd
00000160: b4da 583d 5757 043d b04a b5bb 225b 63bd
00000170: fff2 12bd ad25 58bc 0a08 84bd 9d72 713c
00000180: 0363 963c c35e c93c a134 0e3d 30f2 563b
00000190: 08f5 393d 05a3 0b3d dc34 043c 1da2 913c
000001a0: 3119 1f3c abbc bc3c 8ea1 aa3c b615 9ebc
000001b0: 85d6 d13c 2d4c 8cbb 90a6 0a3d b9d5 0fbd
000001c0: 43e0 8bbc 70fa 173d b540 abbc ba0f 0cbc
000001d0: d243 383c cb58 2bba 3648 3bbd d948 08bc
000001e0: 536f 76bc 292f 083d 7e9b 5c3d a8c8 bbbc
000001f0: a324 123d 7e71 983d 6320 c5bb a0e5 0d3d
00000200: 0135 a6bc 79c9 1b3d 5d99 febc e205 593d
00000210: 302f e23c 37a6 2bbd 9935 8ebb b157 3abc
00000220: 5223 663c 9922 0cbd 8775 6dbd 7445 163c
00000230: df0f 0ebd 80d6 e83c 9b2c 30bd c6f4 4fbc
00000240: f466 c9bc 0be1 4ebd b789 193d f9c6 da3c
00000250: 553c 4abc 2bdd 683d 62da 833b 1a10 2bbd
00000260: 70cb 3938 41fb 99bc e874 433d d1cc 703c
00000270: cb1b d53c b49e a0bc 3057 bf3a 66af a2bc
00000280: 4c3a 7bbc edf9 403d 2f77 6ebc dfcf fdbc
00000290: 397d a1bc c085 c03c ede2 aebc 7989 dc3c
000002a0: 1ba2 69bc c0b4 813d 8ede b43c 784c 79ba
000002b0: 1f92 cbbc dc3c ecbc 2f11 47bd bed4 d0bb
000002c0: 6a67 18bd 0492 f8bb f992 de3c 15dd 2abc
000002d0: f1b5 3fbc 6e42 253d 9480 6b3d 9c05 da3c
000002e0: f7e0 3e3d 9bd6 12bc 7fd8 29bc 9d0d 27bc
000002f0: acc3 613d becf 393d 735b 043d a953 623c
00000300: f3ed a3bc 3539 9d3c 9326 65bc 3b5d 4d3d
00000310: cac5 753b be57 933c bf8f f33c da65 193d
00000320: d3fe e83a 5898 953d 4f2c 643c 9e32 eabc
00000330: 8e00 15bd d3c5 1e3d 9bc6 8abb aadb 673b
00000340: 7c19 2239 9357 433c 3df0 09bd 2f82 fdbc
00000350: 8911 9a3c d463 3bbc eece 1c3d b9e4 173d
00000360: 92ad 97ba 2b98 46bd d4fc 26bd 6fea 4b3d
00000370: ac31 933c 0977 a23c 5251 8e3d bc55 ee3a
00000380: 1acf 2cbd 4c3e a33c 0f64 0bbc 8f0d dfbc
00000390: 57d2 953c 2284 3ebc 47e5 7c3d 3436 af3c
000003a0: d1de f03c 129b fd3c e082 133d d2e6 f53c
000003b0: 3bb9 103c e02c 353c 12fd 1ebc a247 1dbd
000003c0: 0061 cd3c 115a 3fbd fc85 fe3c 7162 89b9
000003d0: 149a 01bd fd38 1dbd 659a 253d a4b0 efbc
000003e0: 1683 013d 188e 85bc fc69 79bc 023a a1bc
000003f0: 98ec 843d b7aa 553d 149f 07bb f412 d0bc
0.044290766 0.01469523 0.004324592 0.026517287 -0.018998874 0.043434773 -0.027816249 0.026060363
0.017873125 0.03962667 0.082550675 0.07211892 0.043978218 0.040027294 0.0040651415 0.010454191
0.05284125 -0.01240915 -0.011828189 -0.041211046 0.08680649 0.06748941 -0.040370815 -0.028804721
0.027108671 0.0088212285 -0.04352771 0.028733693 0.026949596 -0.02827239 -0.004991368 0.037978753
-0.027381767 0.06185892 0.034318212 0.035357382 -0.0063620117 -0.017187735 -0.015785819 -0.009418895
0.08303139 -0.0410805 0.044775296 0.0483078 -0.027399397 -0.058855973 -0.02467432 0.040807344
0.06597162 -0.004174782 0.005467824 0.044964828 -0.003366347 0.051057015 0.053305164 -0.03986513
0.025648292 -0.04897276 -0.045788057 0.017588804 0.0074460693 -0.03666051 -0.030541616 0.023716275
-0.005380128 0.06348505 0.046611194 0.01048951 0.059387606 0.04395675 -0.00619492 0.04072143
0.06991071 0.020984726 0.07334664 -0.004785043 -0.06375652 -0.031897034 -0.05249074 -0.033834625
-0.022217574 -0.022626786 0.029476713 0.012021903 0.038878087 0.03247172 -0.020573972 -0.046865363
0.052942947 0.032309856 -0.005532585 -0.055506833 -0.03587627 -0.013192576 -0.06446846 0.014736799
0.01835776 0.024581319 0.03471816 0.0032798164 0.045399696 0.034091014 0.008069243 0.017777497
0.009710596 0.023039183 0.020828988 -0.019297462 0.025614986 -0.004281542 0.033850253 -0.03511593
-0.01707471 0.03710407 -0.020904878 -0.008548671 0.011246638 -0.00065363635 -0.045723163 -0.0083181495
-0.01504119 0.0332481 0.053859226 -0.022922829 0.03567947 0.07443522 -0.0060158237 0.034642816
-0.020288946 0.038033936 -0.031078989 0.052984126 0.027610391 -0.04190656 -0.0043398854 -0.011373446
0.014046507 -0.034212682 -0.05797341 0.009171832 -0.034683105 0.028422594 -0.04301129 -0.012692636
-0.024585225 -0.050507586 0.03748485 0.026706206 -0.012343486 0.056851547 0.004023836 -0.041763403
4.4296903e-05 -0.018796565 0.047718912 0.01469727 0.02601423 -0.019606926 0.0014598127 -0.019859027
-0.015333723 0.047113348 -0.014554783 -0.03098291 -0.019713031 0.023501277 -0.021348441 0.02692102
-0.01425984 0.063333035 0.022078779 -0.0009509991 -0.02484995 -0.028837614 -0.048600372 -0.006373017
-0.037208 -0.007585766 0.027169691 -0.010428687 -0.011701093 0.040346555 0.05749567 0.026614003
0.046601262 -0.008962299 -0.010366558 -0.010196117 0.055118248 0.045364134 0.032313775 0.013813891
-0.020010924 0.019192318 -0.013986248 0.05013774 0.0037501925 0.017986175 0.02973163 0.03745065
0.0017776139 0.07304448 0.01392658 -0.02858859 -0.036377482 0.03876288 -0.0042351014 0.0035378733
0.00015459018 0.011922735 -0.033676375 -0.030945865 0.01880719 -0.011437375 0.03828328 0.03708336
-0.0011572114 -0.048484962 -0.04076846 0.04978412 0.017968021 0.019832151 0.06949104 0.001818351
-0.042189695 0.019927166 -0.008507743 -0.027228145 0.018288774 -0.011628183 0.061742093 0.02138815
0.029403122 0.030957732 0.036013484 0.03001729 0.008833225 0.011058062 -0.009703891 -0.038398392
0.025070667 -0.046716753 0.031069748 -0.0002620402 -0.03164108 -0.038384426 0.040430445 -0.029259034
0.031619154 -0.016303107 -0.015223023 -0.01968098 0.06490439 0.05216476 -0.0020694183 -0.025399663

fc1.bias f4 [50]
00000000: d8fe 3a3b 24f0 eb3c fdd8 eb3c 51be 76bc
00000010: 80cb f6bb 0e6f dcbc ce17 583c 96ef 513c
00000020: fb01 833a b10f 7fbb 487c d7bc b51e 833d
00000030: be1e 313d 4897 913c 0a59 b3bc 11ab 543d
00000040: 1a09 0f3c b7c0 4f3d cb9c 7e3d 83d0 013a
00000050: 26b9 593d 5317 b63c f6c6 57bd df8e febc
00000060: 7c4a 103d f26e 503d 8dbd 193d 5461 20bd
00000070: 34bd 4ebd de88 7f3c 4a30 343b 3a04 bbba
00000080: 8531 7a3c 5ad0 6bbc 7a0e 29bd 3104 a8bb
00000090: 2587 643d 01fc 04bc 4d69 1a3d a232 51bd
000000a0: 7cac b93c e9af 57bd cde8 c63b 50b7 1f3c
000000b0: 65ec 17bb d117 4b3d 629d 34bd a03e 72bd
000000c0: 4a56 3c3c 0eeb 283d
0.0028533246 0.028801031 0.028789992 -0.015060023 -0.0075315833 -0.026908424 0.013189269 0.012813469
0.0009995097 -0.0038919265 -0.02630438 0.06402341 0.04324221 0.017772332 -0.021893043 0.051920954
0.008730197 0.050720897 0.06216125 0.000495203 0.053155087 0.022227919 -0.05267998 -0.031073986
0.035227284 0.050887056 0.037534285 -0.03915532 -0.050473407 0.0155965965 0.0027494603 -0.0014268227
0.015270595 -0.014392937 -0.04127357 -0.005127453 0.055792946 -0.008116723 0.03769808 -0.051073678
0.022665255 -0.052657995 0.0060702325 0.009748295 -0.0023181674 0.04958326 -0.044095404 -0.059141755
0.011495182 0.04123979

fc2.weight f4 [10, 50]
00000000: 63c9 a7bd 8591 2b3e 07ce 23bd eada f13d
00000010: 2283 ac3c c2c7 67bd 8d34 b4bd ded0 f0bd
00000020: e2ad e53c 3b83 55be e6bf 883d 7a2c 81bd
00000030: c7c6 f93c 294a e13d e756 3a3b 0e0e 8cbd
00000040: 74c0 d2bb 99ee 553e 35d1 d63d 65c2 f43d
00000050: d9d4 153e 87e9 153d 0226 14be 0056 1ebc
00000060: 6162 293e 3425 20be 4cc6 7ebd a6ff 42bc
00000070: 845e 53bd 0c39 b0be dec5 1dbc e002 3d3e
00000080: c967 02be 494f c93d e831 68bd 8351 a8bd
00000090: 0962 f43c 7fc5 f23d f78b d23d 49aa febd
000000a0: 9c0e 7a3d a637 27bc 399b c0bd 64e2 9cbd
000000b0: 7267 3d3e f969 e7bb 4bcb a43d 2ca0 10bd
000000c0: 700e 583e 7814 3d3c 1b37 bebc e4ce c33d
000000d0: d7e9 ddbc 90d8 b4bd 5378 093d a343 1b3c
000000e0: 3c72 e1bd e631 4c3e a845 3fbe edb8 533e
000000f0: 0ceb aa3c 79ec 6f3e 98c9 c8bc a2a7 48bd
00000100: aa0d 733d 18a8 6abe f803 9b3d b12a 8ebe
00000110: b88e b63d d075 053e 0727 f0bc 8933 27be
00000120: a6c3 e33d 01e4 333e e07e 74bd 231b c03d
00000130: f359 ba3d 9ec1 5cbe 7fe2 be3d 69f7 843b
00000140: 868a 033e 3170 b93d a09b 543e 4f0b 493e
00000150: 1d55 333e 03f6 d0bd 05f6 22be 8e1d d7bd
00000160: c014 85bc e17c a23d 6ea7 3d3d 31ea a23d
00000170: af6e 4abc 12f5 3139 b1f0 7fbe 0528 2c3d
00000180: ea82 d3ba 68af d53d 4e55 4c3e 859a 57bd
00000190: 8523 843d 9c87 49be 297e 2abe a843 09bd
000001a0: 1840 99bd 2d6e 8cbd f72c 01be d5c1 733d
000001b0: 0410 bd3c a49e 003d f5e6 73bd 950c 01be
000001c0: 2075 83bc 21e0 333e 740c c5bd ee88 17be
000001d0: aa3a 133e 547d 123d c1d1 183e 278a 11be
000001e0: bec0 133e 85ca b7bc 6bcf d6bd 0455 77be
000001f0: b20d b63c 526c 623d abe4 20bd 93b7 6ebd
00000200: cd8a 67bd 70bd 36be 3ee4 4abe 7116 593e
00000210: 4e11 803e 678d 7dbc a8fd 28be 681c 943d
00000220: e049 813e 0ecf 213d 27ab 7bbb 99a8 f93d
00000230: 68e9 853c 90b9 99bc e093 8fbc fbc7 613e
00000240: a25c 95bd 7c43 643e 1676 84bc d32c 813d
00000250: 3bf9 3d3e 0d91 d13d ae49 e8b9 6d36 bd3d
00000260: 60cd 15be 469a 47be d463 8f3d f8f7 49be
00000270: 02ab b93d fdef 2cbe 06fd 73bc a436 5b3e
00000280: bb53 20be 829a c23d c0a7 82bd 5b4e 093e
00000290: 5051 80bd 55da 143e bd54 ba3d d2b2 36be
000002a0: 46b0 6bbd f06b cd3c a0c0 9bbd 3385 793e
000002b0: 693a 84bd 0c3b 233e 410c 19bd c0ac 053e
000002c0: 7c1f e13d 187d b8bd 200c 563c ccfc ce3d
000002d0: d9fa 67bd 8c6b 8c3d e1b2 273e f78f 5cbe
000002e0: 2431 6f3d 052c 413e 72e1 d63d e116 603e
000002f0: 6e2b 86be 2fa6 92bc 6acf 15be 8f56 f73d
00000300: a4f7 dfbd e1c4 a8bd d5ae c33d c3b8 22be
00000310: 6a94 22be 8e46 f13d 6ec7 a0bd 2b69 c0bd
00000320: ba48 c73d b684 21be 3a18 4c3e d6fb 733d
00000330: f537 ef3d 1143 06be 3ed5 163e 9975 703d
00000340: fff5 c4bc 3a22 003c 9ba6 05be 18fe 84bd
00000350: 7ec4 d93d e7ec 0fbd 99d3 813d 163c 4dbe
00000360: 2a94 4abd 0a0e a3bc db90 2fbe f0bd 3c3e
00000370: 9aad 1d3e 502c 573d 4350 263d 6a5b 913e
00000380: c242 213d 4072 2fbd 95cf eabc f3f0 26be
00000390: cd83 febc a13b 983d 755c 05be 1391 2abd
000003a0: 2266 1fbe 1dd5 743e 2bc8 5e3e db6b 70bc
000003b0: f5be 9ebd f9d6 203e 294c 783e 07dd 12bd
000003c0: 2b68 3bbe 03b1 f0bd dbaa 713d 3590 8abd
000003d0: 5e8d 82be 540c a43e 70a2 cd3c 8928 b2bd
000003e0: 92ac 6cbd a640 aabd 1714 1d3e e257 763c
000003f0: e498 293e f7fd 9dbe 0e93 443d fdb5 833e
-0.08192708 0.1675473 -0.039991405 0.11809333 0.021058623 -0.05658699 -0.08799086 -0.11758588
0.028037015 -0.20850842 0.06677227 -0.06307311 0.030490292 0.11000473 0.0028433145 -0.06838618
-0.0064316336 0.20891799 0.10489122 0.1195114 0.14631976 0.036599662 -0.14467624 -0.009664059
0.16541435 -0.15639192 -0.06220083 -0.011901772 -0.05160381 -0.34418523 -0.009629695 0.18458128
-0.12734903 0.098295756 -0.05668822 -0.08218672 0.029831903 0.11854076 0.102806024 -0.12434823
0.06104909 -0.010206139 -0.09404606 -0.07660368 0.18496493 -0.0070621935 0.080465876 -0.035309
0.21099257 0.011540525 -0.023219636 0.09560946 -0.027089043 -0.088303685 0.033562016 0.009476575
-0.110081166 0.1994091 -0.18678916 0.20676012 0.020864032 0.23430051 -0.02451019 -0.048987992
0.059339203 -0.22915685 0.07569116 -0.27766946 0.0891394 0.13033223 -0.029315485 -0.16328253
0.11121301 0.17567445 -0.05969131 0.09380176 0.09099188 -0.21558234 0.093205445 0.004057814
0.12845811 0.09054602 0.20762491 0.1963322 0.17512937 -0.10203173 -0.15914162 -0.10503684
-0.016245246 0.07933975 0.04630225 0.07954825 -0.012355491 0.00016971331 -0.2499416 0.042030353
-0.0016137038 0.10433847 0.19954416 -0.052637596 0.06452087 -0.19680637 -0.16649689 -0.033511788
-0.07482928 -0.06856952 -0.12614809 0.059511025 0.023078926 0.03140129 -0.05954643 -0.12602456
-0.01604706 0.17565967 -0.09621516 -0.14798328 0.14377847 0.035764053 0.14923765 -0.14212857
0.14428994 -0.022435436 -0.104887806 -0.24153525 0.022223327 0.055279084 -0.039280575 -0.05828054
-0.056528855 -0.17845702 -0.1981363 0.21199967 0.25013202 -0.0154756075 -0.16503012 0.072319806
0.25251675 0.039504103 -0.0038401575 0.121903606 0.016346648 -0.01876524 -0.017526567 0.22048943
-0.07293059 0.22291368 -0.016169589 0.06307378 0.18552105 0.10232744 -0.00044305384 0.092388965
-0.14629126 -0.19492444 0.070014626 -0.19723499 0.0906582 -0.16888423 -0.014891868 0.21407562
-0.1565694 0.09502126 -0.06379652 0.13408796 -0.06265509 0.14536412 0.09098194 -0.17841652
-0.057541154 0.025075883 -0.076051 0.24367218 -0.06456453 0.15940493 -0.0373652 0.1305418
0.10992333 -0.09008235 0.013064414 0.10106811 -0.05663571 0.068564504 0.1637683 -0.21539293
0.058396474 0.18864448 0.10492219 0.21883728 -0.2620501 -0.017901508 -0.14629903 0.120770566
-0.109359056 -0.08240677 0.09554831 -0.15890794 -0.15876928 0.11781035 -0.07850538 -0.09395059
0.09730668 -0.15773281 0.19931117 0.05956634 0.11680595 -0.13111521 0.14729783 0.0587059
-0.024043081 0.00782066 -0.13051836 -0.06493777 0.10633181 -0.035138037 0.06339187 -0.20042452
-0.049457707 -0.019904155 -0.17145102 0.1843183 0.15398255 0.052532494 0.040603887 0.28390056
0.039370306 -0.042833567 -0.028663436 -0.16302852 -0.031068707 0.07433248 -0.13023551 -0.04164226
-0.15566304 0.23909421 0.21756046 -0.014674152 -0.07751266 0.15707006 0.24247803 -0.03585532
-0.18301456 -0.11752512 0.05900083 -0.067657866 -0.2549848 0.32040656 0.02510187 -0.08699138
-0.057781763 -0.08313112 0.15339695 0.015035601 0.1656223 -0.30857822 0.047991805 0.25724784

fc2.bias f4 [10]
00000000: deac afbd 046b 073e c8a6 ad3d 555d 06be
00000010: e42a b9bd 1f09 363d f302 93bd 93fc 253e
00000020: dd3c 923c 9172 3fbd
-0.08577894 0.13224417 0.084790766 -0.13121541 -0.09041384 0.044442292 -0.07178297 0.1620963
0.017851287 -0.04674012
