CNN/cpp/mnist_cnn_cuda.pt (torch, 93881 bytes, 8 tensors)

weight f4 [10, 1, 5, 5]
00000000: ac55 983e 398a b23e bd19 c83d 38de 993e
00000010: e8e8 883e a135 9e3e 7f8a 4b3e 5714 e73e
00000020: aaf7 3e3e 3c40 423c 860d c4ba 9e88 a63e
00000030: 13c9 eb3d 39c4 e53d c79e 153e ba5d 843e
00000040: 16a7 523e a516 883b 5e18 18bb e0b1 c5bc
00000050: 25db b43d 2c00 53be cefc 0fbd bd6e 88be
00000060: 6e6c f6bd 56a1 5c3d 4fb1 6abe 39c6 48be
00000070: a290 3dbe 903c 40be 0934 36be df59 0abe
00000080: af2a 60be a454 43be 5cae 203e 9c37 603e
00000090: 2b11 293d a453 b23d cdd8 0b3d ca8b 5f3c
000000a0: 3760 d43c 3f44 583e a2a2 7c3e 8b76 c53c
000000b0: abbc 0b3d cc68 b03d 74fd 783e a1bf f53d
000000c0: 0090 e03d ce8c abbd 2038 1e3e e7ad 8ebd
000000d0: 9310 61bd af55 d3bd 1203 c73b d62f bf3c
000000e0: 6f9d dbbd a743 81bd 13ba a6bd 8cfe 843d
000000f0: 734a c1bd fe66 e23d 52fd bc3d fa76 cdbd
00000100: 5acd f93d 4d59 e7bd e2e5 03be 9ed2 f4bd
00000110: 0a80 673e db78 4bbd a942 2f3e ced3 07be
00000120: 8efa 323d 9d55 98bd 00fe 3a3e 50fa 51bd
00000130: 464e 433e 9200 de3d 89fb 0ebe 2c1c 243e
00000140: 8864 1ebe 17a6 cd3d feff 373d 4c50 af3e
00000150: 2bef ac3e 5494 4c3e dff6 1b3e d2b5 d43e
00000160: 3bc1 ec3e 5f6f 7a3e 91c0 4dbe 0acf 2a3e
00000170: c533 213e e5b1 cb3e d5d1 b63e 9b5a ebbd
00000180: 43c2 bc3c 703a a13d 52b5 843e 3775 263e
00000190: 295c 5abe e698 f33d bec2 cf3d 9691 8d3d
000001a0: a1be 393e 0574 78be 94fd 18be aef3 603e
000001b0: d702 8c3e 7e8b c0bc 8321 d93d f5a5 c33d
000001c0: e6ff 953e 27b1 b13d 661b bdbd da8d 823e
000001d0: 8e16 243e cf36 7b3e 3980 913e 58be 6f3e
000001e0: 9823 32be b926 5d3d b1e4 cabd fc48 033e
000001f0: f99f 8a3d 56a2 713d ca4f e33c 1759 133e
00000200: c5c6 123d d2b6 1d3e ff05 463e 64bc 843d
00000210: 3296 11be 4b26 f43d 7026 a43c 7694 9cbd
00000220: 9e0b 2c3e 9da1 1abe 854d 32bc d783 54be
00000230: faab ae3d 89de b2bc f9b6 983d 8097 dc3c
00000240: 9e69 953c 5082 14be e9dd 19be 37e2 68be
00000250: bdb2 0fbe 30d6 fbbd b3bc 0fbe 0a11 c1bd
00000260: 7118 46be 9576 483e c09a aa3e a84f 28be
00000270: b62e 8cbe 7365 d6bb d66d 1fbd 4442 843e
00000280: 610c 26be ae28 163d c145 363d 0834 8e3e
00000290: 9eb5 f33d 4fd1 20be 20e6 4cbe 759f 023a
000002a0: 992b 5c3d af9d 0f3e 4f85 073d 712c d7bd
000002b0: b95d 113d 6836 b93d 7a4b 563e c584 34be
000002c0: c4fb 833d af89 21be 6d5f 8b3e 9bc8 9c3e
000002d0: 7721 2839 6c71 edbd 8812 f4bd 87ce c23e
000002e0: a3ca a63e d28e 1dbe 0bdd 573e a0a0 db3d
000002f0: ace2 053e 064d 1ebc 1505 2f3d 7826 243e
00000300: 4fac 853d bb6f 63bd 19c5 903d e707 d03d
00000310: cfbb 33be 08d7 163e bdfa 43bc 11ca 10be
00000320: c35c adbc 997e 83bd a164 7c3c caea 0fbe
00000330: 5c40 82bd 570e adbd 7e4f 28be 76c7 dc3d
00000340: 9b71 423e 6fb5 3a3e bcdf fbbb 3db1 8d3e
00000350: f5dd da3e fa60 e73e 7b4f 9e3e 841f 843d
00000360: 7050 6a3e aa89 ce3e d211 653e a020 1f3e
00000370: a8ae 02bd cf52 28bd 822d cb3d 8872 583e
00000380: c6ef 8c3e 6edf 633e b245 a13e ee5a 2d3e
00000390: 3bf5 4a3e c6bb 003e ab4f 013e adc4 93bd
000003a0: 64b3 97bb 4c8c 353d 9a38 1abe 0ae4 2cbe
000003b0: afa4 5abd a0ee 7b3d 897b febd 3ed3 38be
000003c0: 0b83 67be 057c 1fbe 7f50 52be 2944 8c3a
000003d0: 8305 323e 9e64 af3d a89e 09be 9589 ccbb
000003e0: 7b5d 00be 7b14 f8bc
0.29752862 0.3487108 0.09770534 0.30052352 0.26740193 0.3090029 0.19877051 0.45132706
0.18649164 0.011856135 -0.0014957644 0.32526106 0.11512961 0.11219067 0.1461135 0.25852758
0.2057155 0.00415309 -0.0023207883 -0.024132669 0.08830861 -0.20605534 -0.035153203 -0.26646987
-0.120324 0.0538648 -0.229192 -0.19606866 -0.18512204 -0.18773103 -0.17793287 -0.13510846
-0.21891282 -0.19075257 0.15691513 0.21896213 0.04127614 0.087073594 0.034142304 0.013644168
0.025924785 0.21119784 0.24671414 0.024104377 0.034115475 0.086137384 0.24315435 0.11999441
0.10964966 -0.08376466 0.15451097 -0.06966763 -0.054947447 -0.10319077 0.006073364 0.02333824
-0.107233874 -0.06311732 -0.081409596 0.064938635 -0.09438028 0.110548005 0.092280045 -0.100324586
0.12197371 -0.1129633 -0.12880662 -0.119542345 0.22607437 -0.049675804 0.17115273 -0.13264391
0.04369598 -0.074382044 0.18260956 -0.051264107 0.19072828 0.108399525 -0.1396314 0.16026372
-0.15468037 0.10041445 0.044921868 0.3424095 0.3377622 0.19978458 0.15230893 0.41544968
0.46241173 0.24456547 -0.2009299 0.16680542 0.15742405 0.3978416 0.35706964 -0.11491891
0.02304185 0.07872474 0.25919586 0.16255651 -0.21324219 0.118943974 0.10144566 0.06912534
0.18139125 -0.24263008 -0.14940482 0.21967956 0.27345917 -0.023504015 0.10602095 0.09553138
0.29296798 0.08676367 -0.092337415 0.2549885 0.16024229 0.24532627 0.2841814 0.23412454
-0.1739639 0.053992007 -0.09906901 0.1282081 0.067687936 0.058992706 0.027748007 0.14389454
0.035834093 0.15401772 0.19338225 0.06481245 -0.14217451 0.11921366 0.02003786 -0.07645504
0.16801307 -0.15100713 -0.01088274 -0.20753418 0.08528896 -0.021834629 0.07456774 0.02692771
0.018238839 -0.14502835 -0.15026058 -0.22742544 -0.14033027 -0.122967124 -0.14036827 -0.09427078
-0.19345261 0.19576485 0.3332119 -0.16436636 -0.27379388 -0.0065428554 -0.038923107 0.25831807
-0.1621566 0.03665989 0.044500116 0.27774072 0.11899875 -0.15704845 -0.2000966 0.00049828674
0.053752515 0.14024995 0.033086117 -0.105065234 0.03548977 0.0904358 0.2092723 -0.17628773
0.06444505 -0.15775178 0.27221242 0.306218 0.00016034195 -0.11593899 -0.11917597 0.38048193
0.32576475 -0.15386513 0.21080415 0.10723996 0.1307475 -0.0096619185 0.042729456 0.160303
0.06527006 -0.055526476 0.070688434 0.10157757 -0.17552112 0.14730465 -0.011961636 -0.14139582
-0.021162396 -0.06420631 0.015404851 -0.14054409 -0.06359932 -0.08450001 -0.16436574 0.10780232
0.1898865 0.18233274 -0.0076865833 0.27674285 0.42747465 0.45191175 0.30920014 0.06451324
0.22882247 0.40339404 0.22370079 0.15539789 -0.031904846 -0.041094597 0.09920789 0.2113744
0.27526683 0.222532 0.31498486 0.16929218 0.1982011 0.1257163 0.12628047 -0.07215247
-0.0046295393 0.04432325 -0.15060654 -0.16883865 -0.05337971 0.061506867 -0.12425906 -0.18049332
-0.22608583 -0.15574653 -0.2053852 0.0010701466 0.17384915 0.08564113 -0.13439429 -0.006241987
-0.1253566 -0.030283203

bias f4 [10]
00000000: ab38 473d a3e8 b7bd 083d 2fbd b13f 913e
00000010: 7688 90bd 77e3 d53c c86f 0a3e 5186 4d3e
00000020: e1a8 2a3e a75a c23d
0.048638027 -0.08979919 -0.042782813 0.28368905 -0.07057278 0.02610944 0.13519204 0.20070769
0.16665985 0.09489947

weight f4 [20, 10, 5, 5]
00000000: a1b9 febc 947b 083d 5da2 c13c e8b7 273d
00000010: 73f9 63bb 7d3f 953d bce4 b43c ead7 23bd
00000020: 23da d23d eed8 ad3d 3e0e 9b3d d52f 953d
00000030: f9f2 1cbd 88f3 7cbc fc62 03bd 5fb8 3f3d
00000040: ee66 073d 23a5 813b 28d6 083d ead6 debc
00000050: 3d55 19bd 5cd7 453c b056 1c3c a204 d23c
00000060: 2da8 723d 8e72 08bd c6ce 80bd bee1 113b
00000070: e044 7a3d c1d0 71bb 1ca8 1bbc d0b0 7bbc
00000080: 23cf 00bd 36f1 c83c 5b2f 773c 5abe 4dbc
00000090: d4f0 00bd 3077 ccbc 5510 e93b 0b82 af3d
000000a0: a8bb 09bc bf86 8f3d 9415 813c 0705 5e3d
000000b0: 0e0d 603c c182 55bc 69bb 513d 295b f1bc
000000c0: a259 c03b 284d 003d f4ac 7f3d 387a 843a
000000d0: a4fd 51bd d585 2bba 1755 03bd fcb6 353c
000000e0: 5990 22bd fefb 0ebd cd6e ca3b 62dc 22bd
000000f0: b1b9 5c3d e247 43bc 3d84 673d 2b59 0abd
00000100: 6c51 3e3d 9493 57bd c730 2a3d 0826 4a3c
00000110: ddb2 0fbd 0d83 6b3c 44fb 6cbd b506 443b
00000120: 0b82 0f3d a6c9 a83c 16ab e1bb 1f42 1e3d
00000130: 70c8 f4ba 31ef f5bb 1ecd 02bc 8c44 bf3c
00000140: 0c91 953b 7e29 c5bb 1f4d afbd 6bb2 62bd
00000150: 50c1 82bd 131b 463d 5a80 bebd 7f84 d8bd
00000160: 7f1d 06bd a77c 81bd 4df6 903d 11c2 cdba
00000170: 9343 68bd 9a3b 283d 11c9 c43c 0af3 f33c
00000180: 0d7e 353d 973e a4bc 4cfe 2fbd 6ae4 abbc
00000190: 96d6 183d 60c0 203d f16f 803b fe9f c03d
000001a0: 5465 b539 c102 9fbc 25a6 babc 460d bcbb
000001b0: 42a8 0ebd 5bd1 81bd bb25 5a3d fe46 85bc
000001c0: b6d6 7ebd 1540 31bd 7374 71bd ba4b 143d
000001d0: 6c2f a4bd a1cd b0bd 73ae 67bd ece1 1dbd
000001e0: 52c7 7a3d a575 a13c 8743 863d 91b2 6a3d
000001f0: 5723 81bd e1f9 393d fc95 9c3c 53ca 6a3d
00000200: 05ca 9c3d 9d7c 6a3d a8cd 983c 8732 dcbc
00000210: 7407 9d3d 4325 693d d7cd a63d b6ea 61bd
00000220: 4944 0e3d 1edc 86bd 0a78 26bd fccf d8bc
00000230: 94b5 ba3c 8dc0 2fbd d58a 2fbd 1d81 cdbc
00000240: 7c4e 2a3d 662d 56bd d27d 08bd 1b06 123d
00000250: f34d 3bbc 2afb 0cbd f92b dd3c 4a5e 353d
00000260: def9 d8bc 183b f53c bb1d 4e3d 4828 34bc
00000270: 255a 19bd 17ad cdbc 730e a4bd 4286 8ebd
00000280: a50c 00bd 7bec 6d3c b988 aa3c db11 2f3c
00000290: 18e0 273c 928a 853d 3d60 67bd a148 283c
000002a0: bcc9 16bd cc40 04bc 76ea 723c dee1 1e3d
000002b0: b86c 923d 4617 b1bb 820f 0fbd ac38 c7bc
000002c0: df63 d13c 62b4 f13c 0834 fdbb 9410 9f3d
000002d0: 3d7d a8bc a7af 0c3d 5628 623d 1b78 4f3d
000002e0: f2c5 b93c f5e8 e5bc 6286 bd3c f7b0 053d
000002f0: 4981 33bd 88b7 67bd f9cb d63c 394d b73c
00000300: a068 2b3d a8a7 cd3c 7a14 bc3c 1b15 45bd
00000310: 2754 673d fe7b 723c 7fbe 86ba d539 6fbd
00000320: fe22 753d da78 53bc 7ced 173d 705e 0f3d
00000330: 07ce 88bc cbbb 34bc f67a bbbd ae34 29bd
00000340: e8cd 9cbd 9ff2 95bd 9328 7d3d 77f8 c5bd
00000350: 1302 83bd 2244 e73c 1124 883c 0fb9 d33c
00000360: 8530 a9bd fe92 5f3c 1db8 9e3d 1fd5 ce3d
00000370: c1d5 37bb c1d3 be3d 107a f43c 64f8 68bd
00000380: eb73 7c3c 0694 f13c 1000 693c f511 abbc
00000390: 7c18 953d 6304 6dbb b6bc 593d a95a 923d
000003a0: 61d5 8d3d e8b3 c83d 8c92 453d 4ec2 84bd
000003b0: d1d8 02bb c867 873c a906 923d d3b6 693d
000003c0: c542 583d d290 983c 1019 5cbd f2d5 0f3c
000003d0: e3b9 893d b8d1 3f3c a37b e23c 8bf1 73bd
000003e0: 0fa5 1fbd 65ae 7f3d 9d57 e43d 7520 3b3c
000003f0: 843a 313d 4166 0bbb a0e3 863d 51e1 053d
-0.031094374 0.03332098 0.023636991 0.04094687 -0.0034786134 0.072875 0.022081725 -0.040000834
0.102955125 0.08488642 0.07571076 0.07284514 -0.038317654 -0.015438922 -0.03207682 0.04680669
0.033057146 0.0039564534 0.03340736 -0.027202088 -0.037434805 0.012075271 0.009542152 0.025636975
0.059242416 -0.033312373 -0.06289439 0.0022259797 0.06110084 -0.0036898109 -0.00950053 -0.01536198
-0.03144754 0.02452908 0.015086974 -0.01255759 -0.03147967 -0.024959177 0.0071125426 0.085697256
-0.008406557 0.07008123 0.01575736 0.054204013 0.0136749875 -0.013031662 0.05120412 -0.029462414
0.00587006 0.031323582 0.0624208 0.0010107225 -0.05126728 -0.0006543075 -0.03206357 0.01109099
-0.039688442 -0.034908287 0.0061777593 -0.039760955 0.053888027 -0.011918994 0.056522597 -0.033776443
0.04646437 -0.052630976 0.041550424 0.012338169 -0.035082687 0.014374507 -0.057856813 0.0029911224
0.035036128 0.020603966 -0.00688685 0.038637277 -0.0018675458 -0.0075053205 -0.007983474 0.023348115
0.00456441 -0.006016909 -0.085596316 -0.055345934 -0.06384528 0.048365664 -0.09301825 -0.105721466
-0.032742973 -0.06322604 0.07078228 -0.0015698095 -0.05670507 0.041072465 0.024021657 0.029778976
0.044309665 -0.020049376 -0.042967126 -0.02098294 0.03731402 0.039245963 0.0039195945 0.09405516
0.00034598506 -0.019410493 -0.022784302 -0.005738887 -0.034828432 -0.063387595 0.05325864 -0.016269203
-0.062216483 -0.043274004 -0.058948945 0.03620503 -0.080168575 -0.086329706 -0.056562852 -0.038545534
0.061225243 0.019709418 0.065558486 0.0572992 -0.06305569 0.04540432 0.019114487 0.057321858
0.0765572 0.057247747 0.018652752 -0.026879562 0.07667437 0.0569203 0.081447296 -0.05515548
0.03473309 -0.06584953 -0.040641822 -0.026466362 0.022791661 -0.04290824 -0.04285701 -0.02508598
0.041578755 -0.05228939 -0.033323117 0.035650354 -0.011432159 -0.034419216 0.026998507 0.044279374
-0.026486333 0.029935405 0.050321322 -0.010995932 -0.037439484 -0.02510695 -0.080105685 -0.069592014
-0.03126206 0.014521713 0.020817148 0.010685409 0.010246299 0.06520571 -0.056488264 0.010271222
-0.036813483 -0.008072089 0.014826408 0.038789622 0.07149643 -0.0054043857 -0.0349269 -0.024319015
0.025560318 0.029504959 -0.00772715 0.07766834 -0.02056753 0.034347203 0.05521425 0.05065165
0.022677395 -0.028065184 0.023135368 0.03263947 -0.043824468 -0.056571513 0.026220309 0.02237569
0.041847825 0.025104359 0.022958983 -0.04811583 0.05647674 0.01480007 -0.0010280161 -0.058404762
0.059847824 -0.012907231 0.037091717 0.035002172 -0.016699804 -0.011031101 -0.09154312 -0.041310005
-0.07656461 -0.07321667 0.061806273 -0.096665315 -0.0639688 0.02823073 0.01661876 0.025845079
-0.082612075 0.0136458855 0.077499606 0.100992434 -0.0028050991 0.093177326 0.02984336 -0.05687751
0.015408496 0.029489528 0.014221206 -0.020882586 0.07280061 -0.0036165945 0.053158484 0.07146198
0.069254644 0.097999394 0.04823546 -0.06482373 -0.0019965658 0.016528979 0.071301766 0.05705912
0.05279805 0.018623743 -0.05373484 0.008779036 0.06724908 0.011707716 0.027646845 -0.059556525
-0.03897577 0.062422175 0.111495234 0.011421313 0.043268695 -0.0021270665 0.06586385 0.03268558

bias f4 [20]
00000000: fb00 8b3c 9051 0fbc 2bfa 683c a853 6b3c
00000010: c817 e6bc d385 0ebc 5f19 e63c 9ee9 173d
00000020: 06b6 78b9 951d 95bc 1d57 f3bc f269 98bd
00000030: 48cb c73c 1ed8 863d 3967 4e3c 7a56 fabc
00000040: 0ab1 00bd 2f5d 423c eca5 483d 6734 fb3c
0.016968241 -0.008747473 0.014219801 0.014363207 -0.028087512 -0.008698898 0.02808827 0.03708803
-0.00023718932 -0.018202582 -0.029704625 -0.074420825 0.024388924 0.0658419 0.012597852 -0.030558813
-0.031418838 0.011863037 0.04898636 0.030664636

weight f4 [50, 320]
00000000: bd21 9c3b b7b9 a73c 4457 353c 554f 833c
00000010: afd7 4b3a 66be 213d 6af3 a33d c407 343d
00000020: b200 883c ffc2 09bc 0524 5c3d 67b7 423c
00000030: d632 d13b a09e 8f3c 8f71 69bc 4617 233d
00000040: 2a92 f83c b8c1 0c3d 57e2 313d a57d 103d
00000050: 1f48 fb3c 8324 61bc 44d7 2fbd 6a3e 013d
00000060: 3441 1abd 6d40 59bc 7bf7 0d39 7a44 98bc
00000070: cf25 95ba 37bc 27bd 8e1b 71bd ae49 8abd
00000080: 4903 deba 362e 773c d05d 65bd 82f8 be3c
00000090: 8dee ed3c 85a0 7ebb fc06 91bd d64b 45bd
000000a0: e268 c9bc 1dd6 c6ba 6701 1bbd ffde 8abd
000000b0: 97ef e9bc f08e 37bd edc0 cd3c b82c 363c
000000c0: 658e 473c 478e 45bd 7142 613c dc30 9a3c
000000d0: d63d b93c 0cd1 2c3d 7f3f 14bd 0b9c 47bb
000000e0: 0f9f 15bd ccd4 c3bc 79c9 30bd 0d9b fa3b
000000f0: 16bc 55bd dd4d a93c b1d6 2a3d 7cc1 c6bc
00000100: 5beb 343c e93d 263d a675 a43d 73a0 cc3d
00000110: 580b 843c 76e6 20bd 257f c8bc 9561 56bb
00000120: 2a6c 8c3d cfeb 5b3d d6ca 8cbd 6a04 583c
00000130: fea3 96ba 6b21 a2bc d15b 923b e5db 43bd
00000140: 2a40 20bb c182 0d3d 7b07 123d 287b 15bd
00000150: 6f14 3d3d e9c8 13bb 3f90 51bd f9ef 82bd
00000160: c25e 613d a3ea 6d3d b66a 16bd 0c0f 123b
00000170: 5149 033c afd3 ac39 76a6 7bbd 0d27 f03b
00000180: ae18 64bb 312d 52bc b7e7 e83c ec51 d33b
00000190: 04fc c23c 9408 1f3c 7c87 3e3c 70b3 ba3c
000001a0: 3980 1e3c aa53 edbc fd02 f5bb ce39 24bd
000001b0: 16a5 133d a6f6 1d3c f4da 3abd 5375 063d
000001c0: 1ded c83c c3a9 9a3c 0566 f3bc 5dae a13d
000001d0: d945 a93b 562f e7bb 65bb 7cbd 1da7 2e3d
000001e0: 7da5 8bbd 29c3 6b3c 632c e1bc f4f2 78bc
000001f0: 0368 f1bc 487d bebc f245 873c ff6f aabb
00000200: c4a4 223d cf58 3b3d 43e6 81bd d73f 4f3d
00000210: 469c 5c3d 861f 8f3c 7d0d 67bd 02c1 30bc
00000220: 7e95 813d fcfa f4bb 4b95 96ba a685 d73b
00000230: 3111 243d e32b 9c3d 03b8 f13c 4940 75bd
00000240: 09e4 4ebd ff4c 6fbd e8e4 4ebc 72e4 a73c
00000250: 7885 033c e790 12bd 01dc dcba 0df5 b43c
00000260: 60b7 e7bc 221e 67bd 770e acbc 97f1 61bd
00000270: b1b9 de3c 01e8 3dbd 9645 bf3c 3124 303d
00000280: 2c07 ecbc 9bfc 18bd 45bb 96bc 835d d4bc
00000290: 4aa7 a3bc 282e e13b 57b0 b93c 7d3a d2bc
000002a0: 5123 713d 029a b63c 313d 623c d52b 423d
000002b0: bbd3 243d d07f ad3c 794c 8bbd e3bb d63b
000002c0: 4a5c e2bc c5fa fa3c 99ae 86bd 34da 1cbd
000002d0: aed5 843d 2d05 a33d 1bd4 ff3b 2abc 543d
000002e0: 0e6c 2f3c 758d 5bbc 1124 973d a430 2e3d
000002f0: 6432 643d ae33 88bc 70af b23c b4a8 83bd
00000300: 345b 58bd 85a1 f4bc 6c78 9bbc d241 12bd
00000310: 4771 78bd 008e 28bd 8907 55bd 512e 35bc
00000320: 6015 01bd 1edd e33c f3d6 d93c f44e 263d
00000330: d2e4 963c e69c d73c e701 e33c dda5 953c
00000340: 0c0f bcbc ce97 bfbc 4a69 5dbd 6f22 9d3c
00000350: 95fa ec3c 77f5 abbc dcc8 88bc b788 26bd
00000360: f15f 25bc c610 83bd 804c 1cbd a5e6 a1bc
00000370: b927 04bd 73d3 cd3c 3cfe ebbc 3fa1 f9bc
00000380: 5d39 31bb fd1c 02bd dc84 883c de2d 30bc
00000390: 58cc d6bc cf59 b03c 3366 6dbc 14fd 073d
000003a0: 4b5c 16bc 6544 0b3d 7bc1 643d 2af1 63bc
000003b0: 7184 093c a550 57bd a53b bfbc 1c0c 84bc
000003c0: 329d 89bd 0cae ae3c 328a 5b3c 255b 873c
000003d0: a542 63bd 791f d4bb bbe7 323d 3a4a 373d
000003e0: 948f a1bc acfb 32bd 7070 a538 3c04 8dbd
000003f0: b93a 38bd beb1 b03d bb77 833b 71ed 5fbd
0.004764764 0.020474298 0.011068169 0.01602904 0.0007775975 0.03948822 0.08005412 0.04395272
0.016601894 -0.008408307 0.05374529 0.011884547 0.006384234 0.017531693 -0.014248266 0.039817117
0.030343134 0.034364432 0.043428745 0.035276074 0.030674038 -0.013741615 -0.042929903 0.031553663
-0.03765984 -0.013259989 0.00013539002 -0.01858734 -0.0011379066 -0.04095098 -0.05886417 -0.067523345
-0.0016938235 0.015086701 -0.05599767 0.023311857 0.029044414 -0.0038853001 -0.0708141 -0.048168026
-0.024586145 -0.0015170012 -0.037843134 -0.067808144 -0.028556628 -0.04481405 0.025116408 0.01111906
0.012179946 -0.04823139 0.013748751 0.018822126 0.022612493 0.04219155 -0.036193367 -0.0030458
-0.036528643 -0.02390518 -0.04316089 0.007647878 -0.052181326 0.02066701 0.041708652 -0.024262182
0.011042441 0.040586386 0.08030252 0.09991541 0.01611869 -0.039282285 -0.02447469 -0.0032711972
0.06856568 0.05369168 -0.068746254 0.013184646 -0.0011492965 -0.019791326 0.004466512 -0.04781713
-0.0024452307 0.034548525 0.035651665 -0.036494404 0.046162065 -0.0022550172 -0.051162954 -0.063934274
0.05502201 0.058085095 -0.03672286 0.00222868 0.008013085 0.00032964113 -0.061438046 0.007328874
-0.003480475 -0.012828157 0.028430803 0.006448975 0.023801811 0.009706635 0.011628982 0.02279064
0.009674125 -0.028970558 -0.007477163 -0.04009419 0.03604611 0.009641325 -0.045618966 0.032826733
0.024527127 0.018879777 -0.029711733 0.07894585 0.005165797 -0.0070552034 -0.06170215 0.04263984
-0.06818674 0.0143897915 -0.027486986 -0.015194643 -0.029468542 -0.023253098 0.016512845 -0.0052013393
0.039707914 0.04573899 -0.06342747 0.05059799 0.05385997 0.017471086 -0.056409348 -0.010788204
0.063273415 -0.0074762087 -0.0011488585 0.0065772114 0.040055458 0.07625558 0.029506689 -0.05987576
-0.05051044 -0.05842304 -0.012627818 0.020494673 0.008027427 -0.03578272 -0.0016850234 0.022089506
-0.028285682 -0.05642522 -0.021002991 -0.05516204 0.027188154 -0.046363834 0.02334861 0.043003265
-0.028812014 -0.03735028 -0.018399844 -0.025923496 -0.01997723 0.0068719573 0.022667093 -0.025662655
0.05887157 0.022290234 0.0138085345 0.047405083 0.040240984 0.02117911 -0.068016954 0.0065531596
-0.027631897 0.030637154 -0.065762706 -0.038294032 0.06486069 0.079599716 0.0078072674 0.05193726
0.010706915 -0.013400425 0.07379926 0.042526856 0.05571212 -0.016626205 0.02181217 -0.06428662
-0.052821353 -0.029862175 -0.01897832 -0.035707302 -0.060654905 -0.041151047 -0.05200914 -0.011058406
-0.031514525 0.027815398 0.026591754 0.04060264 0.018419657 0.026319932 0.027710868 0.018267566
-0.022956394 -0.023387816 -0.05405549 0.019181458 0.02892808 -0.02099107 -0.01669734 -0.040657725
-0.010093675 -0.06399684 -0.038158894 -0.0197633 -0.032264445 0.02512524 -0.028807752 -0.030472396
-0.0027042248 -0.031765927 0.016664915 -0.010753123 -0.026220486 0.0215272 -0.014489698 0.03320034
-0.009177278 0.034000773 0.05584858 -0.013912478 0.008393393 -0.052567143 -0.02334387 -0.016119055
-0.06719436 0.021323226 0.013399648 0.016522953 -0.05548348 -0.0064734784 0.043678027 0.044748522
-0.019721784 -0.043697044 7.888756e-05 -0.06885573 -0.044977877 0.08627652 0.0040120757 -0.0546698

bias f4 [50]
00000000: d3d2 cd3c 209f 37bd ca43 203c c6f7 c3ba
00000010: 8ed6 e23c e05f d13b a51d 35ba c973 b7bc
00000020: a935 593d 610e 88bb d7d6 583d dda9 0cbd
00000030: a9a2 43bd a2c1 cb3c 2aa1 2abc 6cd3 95bc
00000040: 40fa 5c3d ba8f 0ebb 0d47 46bc c302 0cbd
00000050: 12b6 393d 2840 5fbb 41db 29bd 3a8d eabc
00000060: ceb7 a43c c004 4b3c 786a 49bc 97ba 123d
00000070: 2b42 023d 53dd 053d 8ca0 c33c eb54 22bd
00000080: d693 2b3d 55e9 43bd 0802 41bd 49a4 ccbc
00000090: 0f35 873c d0a1 b1bc 06ba 4f3d 1ab4 d73a
000000a0: 01c6 27bd ee30 293d d8dd 623d 3783 763d
000000b0: 711a 38bd aaee 263d 75a7 f4bc bce2 803c
000000c0: 02a3 b73c 314c 07bd
0.025124943 -0.044829488 0.009781787 -0.0014951162 0.027690198 0.006389603 -0.00069090194 -0.022394078
0.05302969 -0.0041521047 0.052939262 -0.03434168 -0.047762547 0.024872605 -0.010414401 -0.01828929
0.053949594 -0.0021753148 -0.012101901 -0.03418232 0.04533965 -0.003406534 -0.041468862 -0.028631795
0.020107176 0.012391269 -0.012293451 0.035822477 0.031801384 0.032681774 0.023880266 -0.039631765
0.041889034 -0.047829945 -0.047121078 -0.024980681 0.016504792 -0.021683604 0.050714515 0.0016456873
-0.040960316 0.04130643 0.055387348 0.06018373 -0.04494709 0.04075495 -0.029865006 0.015733115
0.022416595 -0.033031646

weight f4 [10, 50]
00000000: 9266 423e 02b4 7bbd 8ad9 3c3e 3cc8 91bd
00000010: 8422 a2bc c99b 063e b096 cdba 29f7 693d
00000020: 5e29 1b3d e89d bdbc 6438 f73d ec09 e63d
00000030: 3be8 aebc 1a8b 3c3e ec06 ebbd ab2f 7abe
00000040: 01ab c8bc 1215 8fbc e132 bc3d 2253 cdbb
00000050: 1676 e23d 972e 3b3d dbc9 f43c f6f0 a6bd
00000060: 6dfb 7dbe 1df0 e2bd 370b 4d3e 65ae 9bbd
00000070: 7c03 76be 2240 07be ac1b f53d 3606 5f3d
00000080: d474 08be d2c7 403d 2437 e4bd f33c b9bb
00000090: 5e91 ae3d 3a23 5cbd 296b b0bd 0a16 88bd
000000a0: e046 0ebe 98cb d73d ac8e 34be dee5 043d
000000b0: 0f6d e4bd b645 0cbe 753e 03bd fb0a 313e
000000c0: 03c2 59bd 156c 0a3e b557 d1bd 3743 123e
000000d0: bb7f b43d bdd1 8cbd e18a 503e 672d 393e
000000e0: 8640 4bbd b12d 1d3e 328e e7bb e590 c3bc
000000f0: 296e 313e 2131 72bd e960 2ebd b047 5fbe
00000100: 5bfe 6dbd 19d0 90bc 909b 7c3c f8ff c13d
00000110: 09e9 60bd 4c98 4fbd ca57 ad3d b015 f43d
00000120: 60b8 89bd 1c99 d43c 4d02 49be 03fe dfbd
00000130: 4591 02be faac 3cbe 4535 633e 1ff2 a43d
00000140: 9c7c 153e 9f9b 6abe 31b2 57be ff47 90bd
00000150: de89 323d c91b eb3d 65b0 493d 9132 17bd
00000160: be81 0d3e 6066 adbb 3545 cd3d 56ce 07bd
00000170: 87a5 023e cf49 31be 61f9 453c 341c 16bd
00000180: 7fc2 93bc a6c3 80be 5100 3cbe 5d43 843e
00000190: 125d 44be 2f2a 373e 2db2 6c3e 6cda 81bd
000001a0: 8fda 4f3e 2f1f 5bbc 89d0 ab3d 6db2 16be
000001b0: 2d4b 003e 9f94 20be 14ea 5c3e 34b4 0abe
000001c0: 5c06 843d 6f2b 4f3d ddbc adbd b744 8abd
000001d0: 5c59 313e b301 ecbd 4f53 2c3d f67a dfbd
000001e0: bdbe 16be 546d ba3c 1406 d9bc 4437 113d
000001f0: 496f d23c 88ce 3ebe 14e8 64be 1bfe ff3c
00000200: 20b3 25bd 76ff 2abe 4228 553e 1ec2 b33d
00000210: 9c08 9b3d 668c 243d 7ce5 383e 1e52 d4bb
00000220: d0ae 08bd 74a5 3fbd 3dcc 2b3b bec5 7b3d
00000230: 319d 26be 8134 0fbe e1bb 6abe 4616 03be
00000240: 49d0 08bd 5dde f33b 0f1a 593e dafb 1c3d
00000250: ce1e 4a3e 457d 083d 1373 2ebe 107b f63d
00000260: a720 b2bc 0973 593e ef11 b8bd ccf9 d83b
00000270: 7015 c93d df9d 31be fc78 97bd 5303 2bba
00000280: b38d e5bd 46e1 083d ffa0 a2bd c238 efbd
00000290: ba51 fa3d 9f58 3bbe 6a6a 243d c766 82bd
000002a0: 59de 0dbe 2add 0bbe 00a1 2c3e 0a0d a7bd
000002b0: cd69 763e 5037 1e3d 0382 8e3d 3592 92bd
000002c0: 5990 85be 87f6 173e 34a1 acbd b6d6 96bd
000002d0: fd5b 12be 2eb8 a8bb 20fd 923d bffb a93c
000002e0: d035 993e d64d 0cbe 4ccd 383e 646c cf3d
000002f0: 1643 36be 1163 683d 6dd6 c83d dbe7 c1bd
00000300: fa91 ae3d d1e8 9abd a6b4 8d3e 7b93 2d3d
00000310: 8600 18be bb70 fc3d 55e8 cfbd 2982 b43d
00000320: a7d6 1ebc 3c2d efbc 8f9f 94bd 1ddf 5abd
00000330: a4e3 38be b6da b23d a270 ff3c c176 843d
00000340: adf8 b4bc 4747 b33d 6afe 1fbd 589c 9bbd
00000350: f9ef a4bd 597b 75be e891 b1bd 7f77 aa3e
00000360: f58b 843d 8640 c9bd 69aa 59bd 598b 8ebd
00000370: 626d c9bb 2525 0fbe 67e7 1cbe 383b 503c
00000380: fd57 de3d c6fe 893d 4f22 cfbd fbec 77be
00000390: aa6d e63d 3474 473d 5c3a 12bd 2bbe dd3d
000003a0: e93d 51be 168e 81bb 394e 3dbe 4565 5c3e
000003b0: 7081 2bbe 8935 d23d f808 edbd 796b 243e
000003c0: f4ef 4dbd 2b0b 2b3e f6c6 48bd 199b 87bd
000003d0: c8ba 26be 65fc b2bd 51ed 05be 6f01 623e
000003e0: 19b9 203e dedd 003b 7557 8d3d bdce 0ebe
000003f0: 5653 30bd 22f1 133d 8193 423d 82bf 73bc
0.1898444 -0.061450966 0.1844236 -0.0711827 -0.019791849 0.13145365 -0.0015685167 0.057120476
0.037881248 -0.023146585 0.120713025 0.11232361 -0.02135097 0.18412438 -0.114759296 -0.24432246
-0.024495604 -0.017466102 0.09189392 -0.0062660137 0.11057679 0.04569873 0.029881408 -0.081514284
-0.24802943 -0.11080954 0.2002381 -0.076016225 -0.24024767 -0.13208058 0.119681686 0.054449283
-0.13325816 0.047065563 -0.1114333 -0.0056530177 0.0852382 -0.053744532 -0.08614189 -0.066448286
-0.13894224 0.10536879 -0.1763255 0.03244578 -0.11153614 -0.13698468 -0.032041986 0.17289345
-0.05316354 0.13517793 -0.10221807 0.14283453 0.08813425 -0.06875942 0.20365478 0.18083726
-0.04962208 0.15349461 -0.0070665115 -0.023872802 0.17327179 -0.059128884 -0.04257289 -0.2180469
-0.0581039 -0.017677354 0.015417948 0.0947265 -0.05490974 -0.05068235 0.0846401 0.11918199
-0.0672462 0.025951914 -0.19629784 -0.10937121 -0.12750728 -0.1842536 0.2218829 0.080539934
0.14598316 -0.22910927 -0.21064068 -0.07044982 0.04358851 0.11479909 0.04924049 -0.03691346
0.13819024 -0.005291745 0.10022966 -0.03315576 0.12758456 -0.17313312 0.012083382 -0.03664799
-0.018037079 -0.25149268 -0.18359496 0.25832644 -0.19176129 0.17887186 0.23114844 -0.06340489
0.20298217 -0.013374134 0.08389384 -0.14716502 0.12528677 -0.15681694 0.21573669 -0.13545305
0.064465255 0.05057853 -0.084832884 -0.067513876 0.17319244 -0.115237616 0.042071637 -0.10912125
-0.14721198 0.02275721 -0.026492156 0.035453096 0.02568783 -0.18633473 -0.22354156 0.031249097
-0.04045403 -0.16699013 0.20816138 0.08777259 0.075700015 0.040172957 0.18056291 -0.0064795157
-0.03336984 -0.046788648 0.0026214265 0.06146788 -0.16270901 -0.13984872 -0.22923233 -0.12801465
-0.03340176 0.0074422793 0.21201347 0.038326122 0.19738314 0.03332259 -0.17036085 0.12035191
-0.021744085 0.21235289 -0.089877956 0.006621575 0.09818542 -0.1734538 -0.07396123 -0.00065236277
-0.112086676 0.033417962 -0.07940864 -0.116807476 0.12222619 -0.18295525 0.040140547 -0.063672595
-0.1385435 -0.13658586 0.16858292 -0.08156784 0.24063797 0.03862697 0.069583915 -0.07156793
-0.2608669 0.14840136 -0.084291846 -0.073651716 -0.14292903 -0.005148909 0.07177186 0.020749925
0.29923868 -0.13701567 0.18047065 0.10128096 -0.17799029 0.056735102 0.098065235 -0.09468051
0.085239366 -0.075639375 0.27676886 0.042376976 -0.1484395 0.12326189 -0.10151736 0.088138886
-0.009694732 -0.029196374 -0.07256996 -0.053435434 -0.18055588 0.08733122 0.031181637 0.06467963
-0.022091234 0.087538294 -0.039060988 -0.075981796 -0.08053584 -0.23972835 -0.086704075 0.33294293
0.06472007 -0.0982676 -0.05314103 -0.06960172 -0.0061470727 -0.13979013 -0.15322648 0.012709431
0.10856626 0.06738047 -0.10113966 -0.24211495 0.112513855 0.048694804 -0.035700187 0.10827287
-0.20433773 -0.0039537055 -0.18486871 0.21523006 -0.16748595 0.10264117 -0.11573976 0.16056623
-0.050277665 0.16703479 -0.04901787 -0.066213794 -0.16282189 -0.08739547 -0.1307881 0.2207086
0.15695609 0.0019663493 0.06901447 -0.13946052 -0.043048225 0.036118634 0.047503952 -0.014877202

bias f4 [10]
00000000: 3dd1 febb 7391 cd3c e767 14bd ef74 943d
00000010: 3fbd 8fbd 0465 703d 9de1 a3bd 6710 113d
00000020: 9156 a03d ea1e c63d
-0.007776408 0.02509377 -0.0362319 0.07248866 -0.07018518 0.058690086 -0.08002017 0.035416033
0.07829011 0.09673865
