CNN/cpp/mnist_cnn.pt (torch, 93881 bytes, 8 tensors)

weight f4 [10, 1, 5, 5]
0	0x3e9865a4	0.29765046
1	0x3eb2879b	0.34869084
2	0x3dc846d2	0.09779133
3	0x3e99d997	0.3004882
4	0x3e89079f	0.26763627
5	0x3e9e5baa	0.3092931
6	0x3e4b6a6a	0.19864812
7	0x3ee6dd2a	0.4509061
8	0x3e3ea07f	0.18615912
9	0x3c4b484f	0.012407376
10	0xba04e35e	-0.0005069281
11	0x3ea684f6	0.32523316
12	0x3deb0651	0.11475814
13	0x3de4ee7d	0.111783005
14	0x3e15b70d	0.1462061
15	0x3e84fcfd	0.25974265
16	0x3e52ecf4	0.20598203
17	0x3b708f3c	0.0036706468
18	0xbb4ad1cc	-0.0030947803
19	0xbcca7fc5	-0.024719128
20	0x3db6961a	0.08915348
21	0xbe52acb8	-0.205737
22	0xbd11d07f	-0.035599228
23	0xbe88ebd1	-0.26742414
24	0xbdf8383c	-0.12120101
25	0x3d5c7dbb	0.053830843
26	0xbe6ac4e2	-0.22926667
27	0xbe4909ee	-0.19632694
28	0xbe3e1b51	-0.18565108
29	0xbe40cf54	-0.1882909
30	0xbe36403e	-0.17797944
31	0xbe0a8e92	-0.13530949
32	0xbe60aebe	-0.21941659
33	0xbe43ef8d	-0.1913435
34	0x3e201497	0.15632854
35	0x3e603e7c	0.21898836
36	0x3d28e13e	0.041230433
37	0x3db21ab6	0.08696501
38	0x3d0b751f	0.034047242
39	0x3c600b9b	0.013674642
40	0x3cd1e9a5	0.025624106
41	0x3e589261	0.21149589
42	0x3e7d39be	0.24729058
43	0x3cc756fc	0.02433347
44	0x3d0cf090	0.034409106
45	0x3daff91a	0.08592434
46	0x3e79a8d1	0.24380805
47	0x3df6e247	0.12054878
48	0x3de04513	0.10950675
49	0xbdab981b	-0.08378621
50	0x3e1e8bd0	0.15483022
51	0xbd8df292	-0.06931032
52	0xbd601471	-0.054706994
53	0xbdd335e0	-0.1031301
54	0x3bc7e78e	0.0061006015
55	0x3cc29158	0.023750946
56	0xbddb04e7	-0.106942944
57	0xbd80fbbb	-0.06298014
58	0xbda6ba63	-0.08141019
59	0x3d847db9	0.06469292
60	0xbdc07e72	-0.093991175
61	0x3de2bf6f	0.11071669
62	0x3dbd1ca7	0.092339806
63	0xbdcdd3a0	-0.1005013
64	0x3df94f84	0.121733695
65	0xbde7281b	-0.112869464
66	0xbe040d08	-0.12895596
67	0xbdf4e63a	-0.11957975
68	0x3e674692	0.22585514
69	0xbd4ba958	-0.049722046
70	0x3e2f53ec	0.17121857
71	0xbe080c63	-0.13285975
72	0x3d32a60d	0.04361539
73	0xbd98893f	-0.074480526
74	0x3e3b281c	0.1827702
75	0xbd513d57	-0.05108389
76	0x3e42e74b	0.19033544
77	0x3ddbe26b	0.10736545
78	0xbe0fbd7d	-0.14037128
79	0x3e23fbe6	0.1601406
80	0xbe1e9149	-0.1548511
81	0x3dcc601f	0.09979271
82	0x3d338a95	0.043833334
83	0x3eaf3fc2	0.3422833
84	0x3eacdaab	0.3376058
85	0x3e4bf1bc	0.19916433
86	0x3e1b37ee	0.15158054
87	0x3ed4a8b7	0.4153497
88	0x3eecbe1c	0.46238792
89	0x3e797043	0.2435923
90	0xbe4e5742	-0.20150474
91	0x3e2a71b1	0.16644932
92	0x3e2169c9	0.1576301
93	0x3ecb745f	0.39737222
94	0x3eb61f9a	0.35570985
95	0xbdeb71ce	-0.11496316
96	0x3cbe5132	0.023232076
97	0x3da24cb4	0.07924786
98	0x3e84ab0b	0.25911745
99	0x3e2600e5	0.16211279
100	0xbe598553	-0.21242265
101	0x3df56273	0.11981668
102	0x3dd08ce7	0.10183125
103	0x3d8deec8	0.069303095
104	0x3e3a4e36	0.18193898
105	0xbe779358	-0.24177301
106	0xbe184e78	-0.14873683
107	0x3e60f69c	0.21969074
108	0x3e8c0ec0	0.27355003
109	0xbcbd3433	-0.02309618
110	0x3dda5366	0.10660438
111	0x3dc44019	0.09582538
112	0x3e95fe2b	0.29295477
113	0x3db15378	0.086584985
114	0xbdbc6ffa	-0.09201045
115	0x3e829dc1	0.25510982
116	0x3e2455eb	0.160484
117	0x3e7b5f20	0.24548006
118	0x3e915798	0.2838714
119	0x3e70171d	0.23446317
120	0xbe31dbf6	-0.17369065
121	0x3d5f8ee3	0.054579627
122	0xbdca69d8	-0.09883469
123	0x3e036567	0.1283165
124	0x3d8b4993	0.068011425
125	0x3d71ee31	0.059065048
126	0x3ce31092	0.027717862
127	0x3e1328fe	0.14371106
128	0x3d11ff5a	0.035643913
129	0x3e1da8ef	0.15396474
130	0x3e45d75f	0.19320439
131	0x3d849fca	0.0647579
132	0xbe11ca75	-0.14237387
133	0x3df3de0a	0.11907585
134	0x3ca14714	0.019687213
135	0xbd9ccf13	-0.07656684
136	0x3e2bd54a	0.16780582
137	0xbe1acbc3	-0.15116791
138	0xbc354612	-0.011064069
139	0xbe54ec61	-0.20793296
140	0x3daedd9a	0.08538361
141	0xbcb2fce6	-0.021849107
142	0x3d982aee	0.07430063
143	0x3cd960fe	0.026535507
144	0x3c946642	0.018115167
145	0xbe147f81	-0.14501764
146	0xbe19cb44	-0.15018946
147	0xbe68fb39	-0.22752084
148	0xbe0fd4e7	-0.1404606
149	0xbdfbab71	-0.12288559
150	0xbe100c92	-0.14067295
151	0xbdc14615	-0.09437195
152	0xbe460b3c	-0.19340223
153	0x3e488440	0.195817
154	0x3eaa6032	0.33276516
155	0xbe289c8a	-0.16465965
156	0xbe8c3faf	-0.27392337
157	0xbbc9d251	-0.006159105
158	0xbd1e5947	-0.03865936
159	0x3e8408f2	0.25788075
160	0xbe265c78	-0.16246212
161	0x3d154c7b	0.03644989
162	0x3d35e8b6	0.044411384
163	0x3e8e3301	0.27773288
164	0x3df3ba34	0.1190075
165	0xbe2133e5	-0.15742452
166	0xbe4d1e6e	-0.20031139
167	0x39fd3d38	0.00048301532
168	0x3d5d0b11	0.053965632
169	0x3e1007fc	0.14065546
170	0x3d0739cb	0.0330141
171	0xbdd6a84f	-0.10481321
172	0x3d137f11	0.03600985
173	0x3db9e222	0.090763345
174	0x3e56d182	0.20978358
175	0xbe33f505	-0.17573936
176	0x3d83dc81	0.06438542
177	0xbe21e94e	-0.15811655
178	0x3e8b5456	0.2721278
179	0x3e9caf2d	0.306024
180	0x3a46ddc2	0.0007586145
181	0xbdee1109	-0.11624343
182	0xbdf4bfc0	-0.11950636
183	0x3ec2d2b9	0.38051394
184	0x3ea6be83	0.32567224
185	0xbe1d9596	-0.15389094
186	0x3e5785e1	0.21047164
187	0x3ddb9db5	0.107234396
188	0x3e059aa1	0.13047267
189	0xbc27cb01	-0.010241271
190	0x3d2c3849	0.042045865
191	0x3e23c033	0.15991287
192	0x3d84dab3	0.06487026
193	0xbd65d610	-0.05611235
194	0x3d90710f	0.07052814
195	0x3dceb086	0.10092263
196	0xbe33c16c	-0.17554253
197	0x3e165914	0.14682418
198	0xbc4c9b46	-0.012488192
199	0xbe109e2d	-0.1412284
200	0xbcab3a95	-0.020901958
201	0xbd840746	-0.064467
202	0x3c6cdabb	0.014456446
203	0xbe109a42	-0.14121345
204	0xbd82494a	-0.06361635
205	0xbdad5188	-0.084628165
206	0xbe28b068	-0.16473544
207	0x3ddb4bd0	0.107078195
208	0x3e421a66	0.18955383
209	0x3e3ae663	0.18251948
210	0xbbe7fd7a	-0.0070797773
211	0x3e8dd6b3	0.27702865
212	0x3edae554	0.42753088
213	0x3ee75677	0.45183155
214	0x3e9e5cce	0.3093018
215	0x3d859c85	0.06523994
216	0x3e6b389b	0.22970812
217	0x3ecec8f7	0.403877
218	0x3e64982c	0.22323674
219	0x3e1e769d	0.15474935
220	0xbcfd4ace	-0.030919459
221	0xbd235d37	-0.03988382
222	0x3dcc519e	0.09976505
223	0x3e57c9a7	0.21073018
224	0x3e8cb265	0.27479854
225	0x3e6378eb	0.22214095
226	0x3ea1218f	0.31470916
227	0x3e2cfa2f	0.16892312
228	0x3e4af23b	0.19818966
229	0x3e00b2be	0.12568185
230	0x3e0148ba	0.12625399
231	0xbd941938	-0.072313726
232	0xbb9c0c55	-0.0047622123
233	0x3d340e92	0.043959208
234	0xbe1ad00e	-0.15118429
235	0xbe2cf9d1	-0.16892172
236	0xbd5b6d2e	-0.05357092
237	0x3d7b2ef1	0.061324064
238	0xbdfef4be	-0.124490246
239	0xbe394a3c	-0.18094724
240	0xbe6711fb	-0.22565453
241	0xbe1f7127	-0.15570508
242	0xbe523474	-0.20527822
243	0x3abe4dd9	0.001451905
244	0x3e322c5a	0.17399731
245	0x3db041c2	0.08606292
246	0xbe09ad2f	-0.1344497
247	0xbbcf0496	-0.0063176854
248	0xbe0008ba	-0.12503329
249	0xbcf5e543	-0.030016547

bias f4 [10]
0	0x3d476a6b	0.048685472
1	0xbdb75ed0	-0.08953631
2	0xbd2e6b39	-0.042582724
3	0x3e913536	0.2836091
4	0xbd905589	-0.070475645
5	0x3cd6b695	0.026210109
6	0x3e0ab806	0.13546762
7	0x3e4d810b	0.20068757
8	0x3e2ad966	0.16684493
9	0x3dc37ff5	0.0954589

weight f4 [20, 10, 5, 5]
0	0xbcfb4ec7	-0.030677212
1	0x3d08e9d7	0.033426132
2	0x3cc24e78	0.023719057
3	0x3d292b88	0.04130128
4	0xbb3e70a2	-0.0029058834
5	0x3d970587	0.07374101
6	0x3cb79675	0.02241061
7	0xbd2647be	-0.040595762
8	0x3dd1ec9b	0.10250207
9	0x3dacb078	0.08432096
10	0x3d9b7b51	0.0759188
11	0x3d95cecf	0.07314836
12	0xbd1d257d	-0.03836583
13	0xbc81580f	-0.01578906
14	0xbd0796a7	-0.033102658
15	0x3d40cd26	0.047070645
16	0x3d098fcf	0.033584412
17	0x3b884818	0.004158985
18	0x3d08cda9	0.033399258
19	0xbcddc073	-0.027069306
20	0xbd1757c4	-0.036948934
21	0x3c4741bd	0.012161669
22	0x3c143713	0.009046334
23	0x3cd0fd0c	0.025511287
24	0x3d744656	0.05963739
25	0xbd06922e	-0.03285425
26	0xbd80ad69	-0.06283075
27	0x3b0fd8f0	0.0021949373
28	0x3d7859ab	0.06063239
29	0xbb891b72	-0.00418418
30	0xbc1b037d	-0.009461281
31	0xbc80296e	-0.015644755
32	0xbd01f436	-0.03172704
33	0x3cc7451a	0.024324942
34	0x3c7583e5	0.014985059
35	0xbc4d95d8	-0.012547933
36	0xbd019285	-0.031633873
37	0xbccd9268	-0.025094226
38	0x3beb5ac6	0.007182452
39	0x3daff474	0.085915476
40	0xbc09b24b	-0.008404325
41	0x3d8f1ced	0.06987939
42	0x3c7dd803	0.015493396
43	0x3d5ea0d0	0.05435258
44	0x3c624a90	0.013811722
45	0xbc592ebb	-0.01325577
46	0x3d51b287	0.051195648
47	0xbcf18bcd	-0.029485608
48	0x3bc23718	0.005926978
49	0x3d010bb6	0.03150531
50	0x3d7f0e86	0.06226971
51	0x3a841e2d	0.0010079794
52	0xbd523795	-0.05132254
53	0xba08f9ac	-0.0005225192
54	0xbd03805f	-0.032104846
55	0x3c32efce	0.010921432
56	0xbd22a57c	-0.0397086
57	0xbd0f0e76	-0.0349259
58	0x3bcc12d7	0.006227832
59	0xbd2271e8	-0.03965941
60	0x3d5c5dd6	0.053800426
61	0xbc43efee	-0.011959059
62	0x3d673478	0.056446522
63	0xbd0a086b	-0.033699434
64	0x3d3e90a9	0.046524677
65	0xbd5826c1	-0.052771334
66	0x3d2a17ad	0.041526485
67	0x3c4ac595	0.012376209
68	0xbd0fc8e5	-0.035103697
69	0x3c6bbfb0	0.014388964
70	0xbd6cde15	-0.05782898
71	0x3b40c807	0.00294161
72	0x3d0fff63	0.035155665
73	0x3ca93bb0	0.020658344
74	0xbbe1e5ab	-0.0068938336
75	0x3d223c7d	0.039608467
76	0xbae5d085	-0.0017533457
77	0xbbf898f9	-0.007586595
78	0xbc0b3d46	-0.008498495
79	0x3cbdcd95	0.023169318
80	0x3ba6febd	0.005096285
81	0xbbc11855	-0.005892793
82	0xbdafdcf2	-0.08587064
83	0xbd661272	-0.056169935
84	0xbd841b5c	-0.06450531
85	0x3d472974	0.048623517
86	0xbdbd8e0f	-0.09255611
87	0xbdd899bf	-0.105762
88	0xbd0740df	-0.03302085
89	0xbd822365	-0.06354407
90	0x3d913cae	0.07091652
91	0xbb024a86	-0.0019880845
92	0xbd6827e6	-0.056678675
93	0x3d2b3368	0.04179707
94	0x3cc4297b	0.02394556
95	0x3cf1ab60	0.029500663
96	0x3d33364d	0.043752957
97	0xbca192d2	-0.01972333
98	0xbd2c80d4	-0.042115048
99	0xbca3d06f	-0.01999685
100	0x3d1b1b62	0.03786791
101	0x3d217932	0.03942222
102	0x3b7a2093	0.0038166388
103	0x3dc003d6	0.09375732
104	0xb8119850	-3.4712546e-05
105	0xbc9c42fa	-0.019074906
106	0xbcb9e94e	-0.022694256
107	0xbbb9e8f9	-0.0056735245
108	0xbd10b464	-0.035328284
109	0xbd82a390	-0.06378853
110	0x3d5ab47d	0.053394783
111	0xbc84ae6a	-0.016196448
112	0xbd7e82cb	-0.062136453
113	0xbd324296	-0.043520533
114	0xbd720941	-0.059090856
115	0x3d149844	0.036278024
116	0xbda4c23b	-0.08044859
117	0xbdb0f0f7	-0.086397104
118	0xbd671ae5	-0.056422133
119	0xbd1d1078	-0.038345784
120	0x3d79fab0	0.06103009
121	0x3c9df159	0.019280123
122	0x3d8625e0	0.06550193
123	0x3d6c1ec8	0.057646543
124	0xbd80792b	-0.06273111
125	0x3d39e36c	0.045382902
126	0x3c9d02db	0.0191664
127	0x3d6b3eb6	0.057432853
128	0x3d9cc002	0.0765381
129	0x3d6b10d9	0.057389114
130	0x3c99c39a	0.018770028
131	0xbcdd770e	-0.027034309
132	0x3d9cb09b	0.07650872
133	0x3d68a5e5	0.056798834
134	0x3da69de6	0.081355855
135	0xbd62a189	-0.055329833
136	0x3d0e4040	0.034729242
137	0xbd872dfd	-0.066005684
138	0xbd26f67a	-0.040762402
139	0xbcdb0c7f	-0.026739357
140	0x3cbb16a9	0.022837954
141	0xbd2fb0ba	-0.04289315
142	0xbd2f43d9	-0.042789314
143	0xbccd8c98	-0.025091454
144	0x3d299ebf	0.041411158
145	0xbd5534e9	-0.052052412
146	0xbd087913	-0.03331859
147	0x3d1119a2	0.035424836
148	0xbc3d8865	-0.0115681635
149	0xbd0d1dbb	-0.03445218
150	0x3cdcb731	0.026942821
151	0x3d354942	0.044259317
152	0xbcd62eb3	-0.026145315
153	0x3cf6ee4d	0.030142928
154	0x3d4d1d78	0.05007693
155	0xbc34c462	-0.011033149
156	0xbd1a12a0	-0.03761542
157	0xbccdd3e5	-0.025125453
158	0xbda3dfd1	-0.08001674
159	0xbd8ece58	-0.06972951
160	0xbd0081f9	-0.03137395
161	0x3c6eebfd	0.014582631
162	0x3ca8d894	0.020611085
163	0x3c2e9254	0.0106550045
164	0x3c29aa91	0.010355608
165	0x3d856c14	0.06514755
166	0xbd679d35	-0.05654641
167	0x3c2707fa	0.010194773
168	0xbd176115	-0.03695782
169	0xbc015589	-0.007893928
170	0x3c6ddf76	0.014518609
171	0x3d1e609f	0.038666364
172	0x3d92a392	0.07160105
173	0xbbad854f	-0.0052954326
174	0xbd0cf7c3	-0.03441597
175	0xbcc5ba7c	-0.024136774
176	0x3cd3f361	0.025872888
177	0x3cf28415	0.029603997
178	0xbbfada1c	-0.007655395
179	0x3d9f05bf	0.07764768
180	0xbca87ae1	-0.020566406
181	0x3d0b7d4f	0.03405505
182	0x3d61e8cd	0.055153657
183	0x3d4eb543	0.050465833
184	0x3cb800bd	0.02246129
185	0xbce631ef	-0.028099982
186	0x3cbe9ded	0.023268664
187	0x3d03fd4a	0.032223977
188	0xbd340c44	-0.04395701
189	0xbd68e7a6	-0.056861542
190	0x3cd7ca80	0.026341677
191	0x3cb87fbc	0.022521846
192	0x3d2abefe	0.04168605
193	0x3ccef902	0.02526522
194	0x3cbc16b7	0.02296005
195	0xbd458213	-0.04821975
196	0x3d663f59	0.056212757
197	0x3c72f9a5	0.014830028
198	0xba382f6e	-0.00070261105
199	0xbd6e3f8b	-0.058166068
200	0x3d7a40f7	0.06109711
201	0xbc517c1d	-0.012785939
202	0x3d16a975	0.0367827
203	0x3d0c78cf	0.0342949
204	0xbc8addd6	-0.016951483
205	0xbc2e072e	-0.010621829
206	0xbdbb7e81	-0.09154988
207	0xbd2a3456	-0.041553818
208	0xbd9e9560	-0.07743335
209	0xbd976f3f	-0.073942654
210	0x3d7cfca5	0.061764378
211	0xbdc54ad0	-0.0963341
212	0xbd82e784	-0.06391814
213	0x3ce4c704	0.02792693
214	0x3c887619	0.016657876
215	0x3cd44887	0.02591349
216	0xbda9f5a8	-0.08298808
217	0x3c5ce732	0.013482856
218	0x3d9f8efb	0.07790943
219	0x3dcf63d0	0.101264596
220	0xbb48b33e	-0.0030624415
221	0x3dbdbf87	0.092650466
222	0x3cf57407	0.029962553
223	0xbd65522f	-0.05598658
224	0x3c83673b	0.016040435
225	0x3cf13fc2	0.029449347
226	0x3c6a559b	0.0143026365
227	0xbcac8f40	-0.0210644
228	0x3d955e80	0.07293415
229	0xbb61487c	-0.003437548
230	0x3d5acd14	0.053418234
231	0x3d92291f	0.071367495
232	0x3d8d43c3	0.0689769
233	0x3dc8082a	0.09767182
234	0x3d45f3cb	0.048328202
235	0xbd844c5a	-0.064598754
236	0xbb06c91c	-0.0020566648
237	0x3c847412	0.016168628
238	0x3d91505e	0.07095407
239	0x3d685cfd	0.056729306
240	0x3d57d882	0.052696712
241	0x3c984b8e	0.018590715
242	0xbd5bc894	-0.053658083
243	0x3c0d21c1	0.008614005
244	0x3d89421e	0.06702064
245	0x3c409816	0.01175501
246	0x3ce35566	0.027750682
247	0xbd73887c	-0.059456334
248	0xbd1f9420	-0.038959622
249	0x3d7ff201	0.062486652
250	0x3de60ca6	0.11232881
251	0x3c3f68f9	0.011682742
252	0x3d2ee949	0.042702947
253	0xbb15a7fa	-0.0022835718
254	0x3d879080	0.06619358
255	0x3d0741a6	0.03302159

bias f4 [20]
0	0x3c8b6e2f	0.017020313
1	0xbc0db145	-0.008648221
2	0x3c66b1f7	0.014080516
3	0x3c6b7e2a	0.014373342
4	0xbce4b64f	-0.027918963
5	0xbc0ed2e4	-0.008717272
6	0x3ce72a61	0.02821845
7	0x3d1798fd	0.037011135
8	0xb8b45f7a	-8.600853e-05
9	0xbc959932	-0.018261526
10	0xbcf32ae7	-0.029683543
11	0xbd987d7f	-0.074458115
12	0x3cc78151	0.024353655
13	0x3d86c654	0.06580797
14	0x3c4e142f	0.012578054
15	0xbcfaf452	-0.03063408
16	0xbd001f9e	-0.031280152
17	0x3c3f79a7	0.011686719
18	0x3d48d609	0.049032245
19	0x3cf8b99b	0.030361941

weight f4 [50, 320]
0	0x3b9ee06c	0.0048485305
1	0x3ca96a23	0.020680493
2	0x3c32c714	0.010911722
3	0x3c837073	0.01604483
4	0x3a582c33	0.0008246332
5	0x3d212ac2	0.039347418
6	0x3da39415	0.07987229
7	0x3d335525	0.043782372
8	0x3c861a3c	0.016369931
9	0xbc10837d	-0.008820412
10	0x3d582b75	0.05277582
11	0x3c3c5e08	0.011497028
12	0x3bcf201f	0.006320968
13	0x3c8976f1	0.016780348
14	0xbc6d1667	-0.014470673
15	0x3d249be6	0.04018774
16	0x3cf73e01	0.030180933
17	0x3d0c3ed8	0.03423962
18	0x3d321dc6	0.043485425
19	0x3d104e4a	0.035230912
20	0x3cfadff5	0.03062437
21	0xbc657a45	-0.014006202
22	0xbd3111ce	-0.04322987
23	0x3d00ded9	0.031462524
24	0xbd18ea39	-0.037332747
25	0xbc586712	-0.013208168
26	0xb98cd869	-0.0002686412
27	0xbc9a3374	-0.018823363
28	0xba253693	-0.00063023827
29	0xbd2401e9	-0.040040884
30	0xbd70c2fb	-0.058779698
31	0xbd8b3f9b	-0.06799241
32	0xbac548f3	-0.0015051648
33	0x3c7a8777	0.015291086
34	0xbd63905e	-0.0555576
35	0x3cb92c89	0.022604244
36	0x3cefe6e4	0.029284902
37	0xbb754c79	-0.0037429614
38	0xbd920787	-0.07130342
39	0xbd48e111	-0.049042765
40	0xbcc6d2b7	-0.024270399
41	0xbadffaa7	-0.001708825
42	0xbd18c677	-0.037298646
43	0xbd8a576d	-0.067549564
44	0xbce9fb61	-0.02856225
45	0xbd38900b	-0.045059245
46	0x3cd14469	0.025545316
47	0x3c39e923	0.011347088
48	0x3c48b3f3	0.0122499345
49	0xbd46fe8c	-0.0485826
50	0x3c5ed021	0.0135994265
51	0x3c996525	0.018724987
52	0x3cb66973	0.022267079
53	0x3d2cf713	0.042227816
54	0xbd13ab21	-0.036051873
55	0xbb41aa9c	-0.0029551154
56	0xbd162551	-0.03665668
57	0xbcc77fb3	-0.024352884
58	0xbd31aeea	-0.0433797
59	0x3be0c2fe	0.0068591824
60	0xbd57f19b	-0.052720647
61	0x3ca61821	0.020275177
62	0x3d29acb8	0.041424483
63	0xbcc4a7f6	-0.024005871
64	0x3c3a03cb	0.011353443
65	0x3d280efc	0.041029915
66	0x3da30588	0.079600394
67	0x3dca2f7e	0.0987234
68	0x3c800b92	0.015630517
69	0xbd236d42	-0.03989912
70	0xbcccb4c8	-0.024988547
71	0xbb60c7e7	-0.0034298839
72	0x3d89c676	0.067273065
73	0x3d54ced9	0.051955078
74	0xbd8ce4b1	-0.06879557
75	0x3c56ecb2	0.013117956
76	0xbb5a194f	-0.0033279245
77	0xbca64d52	-0.020300541
78	0x3b996832	0.0046816105
79	0xbd463e56	-0.048399292
80	0xbb1d19d3	-0.0023971691
81	0x3d0d086f	0.03443187
82	0x3d1589e5	0.03650846
83	0xbd15f764	-0.036612883
84	0x3d3e3d67	0.046445277
85	0xbb2892f8	-0.0025722366
86	0xbd5038ac	-0.050835297
87	0xbd83437b	-0.06409355
88	0x3d60a2b9	0.054842684
89	0x3d69e7dd	0.057105888
90	0xbd15aed5	-0.036543686
91	0x3b4091bf	0.0029383746
92	0x3bfc3e9d	0.007697894
93	0xb58fdfe5	-1.0719492e-06
94	0xbd79327a	-0.060839154
95	0x3c0c6e76	0.008571258
96	0xbb70d960	-0.003675066
97	0xbc4f6e4c	-0.012660574
98	0x3ce8b719	0.02840762
99	0x3bcdea5b	0.006284041
100	0x3cc1c9f3	0.023655867
101	0x3c1bbc8e	0.009505404
102	0x3c3702c7	0.011170096
103	0x3cb7f255	0.02245442
104	0x3c204089	0.009781011
105	0xbcee4502	-0.02908564
106	0xbbfdf80c	-0.0077505168
107	0xbd2404ff	-0.040043827
108	0x3d137b44	0.036006227
109	0x3c1ec59f	0.009690671
110	0xbd3a15ec	-0.045431063
111	0x3d06c25f	0.03290021
112	0x3cc84a62	0.024449531
113	0x3c9b2c6c	0.01894208
114	0xbcf0571d	-0.029338414
115	0x3da184a4	0.07886627
116	0x3ba71ed8	0.0051001124
117	0xbbe3f1d5	-0.006956319
118	0xbd7beaa3	-0.061503064
119	0x3d2c7add	0.04210936
120	0xbd8be35b	-0.06830474
121	0x3c6e614a	0.014549563
122	0xbce3311c	-0.027733378
123	0xbc7f79a9	-0.015592971
124	0xbcf4613d	-0.029831523
125	0xbcc2df7f	-0.023788212
126	0x3c864f32	0.016395185
127	0xbba5b7b3	-0.005057299
128	0x3d238aab	0.039927166
129	0x3d3ae76a	0.04563085
130	0xbd82de07	-0.063900046
131	0x3d4bd154	0.049760178
132	0x3d5b4fe4	0.053542987
133	0x3c8ed43c	0.017435186
134	0xbd66f337	-0.05638429
135	0xbc37ea54	-0.011225302
136	0x3d806d98	0.06270903
137	0xbbed8e68	-0.007249642
138	0xb94f544f	-0.00019772466
139	0x3bce1b0a	0.0062898444
140	0x3d221afe	0.039576523
141	0x3d9cfab2	0.07665004
142	0x3cf622b1	0.030045839
143	0xbd75ed9a	-0.060041048
144	0xbd507bf8	-0.050899476
145	0xbd6f0f50	-0.058364213
146	0xbc50dfcc	-0.01274867
147	0x3ca3d6b4	0.01999984
148	0x3bfb36f2	0.007666462
149	0xbd13c8bb	-0.036080103
150	0xbb148f11	-0.0022668282
151	0x3cac376e	0.021022525
152	0xbceccb96	-0.028905671
153	0xbd680c5d	-0.056652416
154	0xbcb071fe	-0.02153873
155	0xbd6284da	-0.05530248
156	0x3cdc90d8	0.026924536
157	0xbd40ceb4	-0.047072127
158	0x3cc3d28f	0.023904113
159	0x3d2f5f39	0.04281542
160	0xbcec806e	-0.028869834
161	0xbd183cde	-0.037167422
162	0xbc9b631c	-0.018968157
163	0xbcd36feb	-0.025810203
164	0xbca0c166	-0.01962347
165	0x3be8a3b3	0.0070995926
166	0x3cb8ed31	0.02257404
167	0xbcd27421	-0.02569014
168	0x3d706450	0.058689415
169	0x3cb9e6dd	0.022693092
170	0x3c62e8fe	0.013849495
171	0x3d42e431	0.0475809
172	0x3d25a7d1	0.040443245
173	0x3cb30c6a	0.021856505
174	0xbd8ab9cb	-0.067737184
175	0x3bcc25e0	0.006230101
176	0xbce4f3fd	-0.027948374
177	0x3cfba93a	0.030720342
178	0xbd8683ef	-0.06568133
179	0xbd1f8b2a	-0.038951077
180	0x3d848817	0.064712696
181	0x3da3201f	0.07965111
182	0x3c077391	0.008267299
183	0x3d546c51	0.05186111
184	0x3c2e5dad	0.010642451
185	0xbc55260a	-0.0130095575
186	0x3d98bf46	0.074583575
187	0x3d2be226	0.04196372
188	0x3d63b202	0.055589683
189	0xbc89084d	-0.016727591
190	0x3cb76f74	0.022392012
191	0xbd84b20d	-0.06479273
192	0xbd58abc5	-0.052898187
193	0xbcf37711	-0.029719861
194	0xbc9beebc	-0.019034736
195	0xbd130071	-0.035889093
196	0xbd7b552c	-0.061360523
197	0xbd29aecb	-0.04142646
198	0xbd541349	-0.051776204
199	0xbc355d12	-0.011069553
200	0xbd01ba31	-0.031671707
201	0x3ce4d9e1	0.027935924
202	0x3cd5d4a0	0.026102364
203	0x3d25b919	0.040459726
204	0x3c969674	0.018382289
205	0x3cd83c3a	0.026395906
206	0x3ce18059	0.027527021
207	0x3c958265	0.018250654
208	0xbcbde4b6	-0.023180347
209	0xbcc64daa	-0.024206955
210	0xbd61cc31	-0.055126373
211	0x3c92b77c	0.017909758
212	0x3ce9d2b5	0.028542856
213	0xbcaaa1a5	-0.020829031
214	0xbc8345b5	-0.01602445
215	0xbd25ffce	-0.040527157
216	0xbc319b4c	-0.010840248
217	0xbd838cf3	-0.06423368
218	0xbd1a709e	-0.037705056
219	0xbca433ad	-0.020044172
220	0xbd079295	-0.033098776
221	0x3ccd236d	0.025041306
222	0xbceb0148	-0.028687134
223	0xbcf9e727	-0.03050573
224	0xbb29d67f	-0.0025915203
225	0xbd01d024	-0.03169264
226	0x3c87e7ad	0.016589964
227	0xbc31627f	-0.010826706
228	0xbcd42988	-0.02589871
229	0x3caf077a	0.02136587
230	0xbc6ff255	-0.014645179
231	0x3d07adc1	0.03312469
232	0xbc12285e	-0.008920757
233	0x3d0bed93	0.034162115
234	0x3d63a286	0.055574916
235	0xbc66ae59	-0.014079654
236	0x3c11b284	0.008892659
237	0xbd565e65	-0.052336115
238	0xbcc0c178	-0.023529753
239	0xbc85dc28	-0.01634033
240	0xbd8b4bfc	-0.06801602
241	0x3ca93bf2	0.020658467
242	0x3c51d6ba	0.012807542
243	0x3c7cf467	0.015439129
244	0xbd62a8e3	-0.055336844
245	0xbbcd41fb	-0.006263969
246	0x3d300318	0.0429717
247	0x3d32b188	0.04362634
248	0xbca40d36	-0.02002583
249	0xbd3362cc	-0.043795392
250	0xb76c9c2d	-1.4103059e-05
251	0xbd8ce132	-0.0687889
252	0xbd38dc8e	-0.045132212
253	0x3db2662c	0.08710894
254	0x3ba2921f	0.0049612666
255	0xbd601200	-0.054704666

bias f4 [50]
0	0x3ccd80ea	0.025085885
1	0xbd37c0d3	-0.044861626
2	0x3c1e63aa	0.009667316
3	0xbac34408	-0.0014897594
4	0x3ce30c8d	0.027715946
5	0x3bd0f630	0.006377004
6	0xba27792d	-0.0006388601
7	0xbcb9807e	-0.022644278
8	0x3d5936c1	0.053030733
9	0xbb88cf38	-0.004175093
10	0x3d58d820	0.052940488
11	0xbd0cc143	-0.034363996
12	0xbd43671d	-0.04770576
13	0x3ccbbbbb	0.02486979
14	0xbc2aa137	-0.010414413
15	0xbc95ee44	-0.01830209
16	0x3d5d06fe	0.053961746
17	0xbb0e34ed	-0.0021699027
18	0xbc46ef8b	-0.012142072
19	0xbd0bc2b3	-0.034121227
20	0x3d39cbf6	0.045360528
21	0xbb64a83c	-0.0034890315
22	0xbd29a0c7	-0.041413095
23	0xbcea632b	-0.02861174
24	0x3ca4cbaf	0.020116655
25	0x3c4b87e7	0.012422538
26	0xbc48ad78	-0.012248389
27	0x3d12c814	0.03583534
28	0x3d02de03	0.031950008
29	0x3d05aeda	0.032637455
30	0x3cc325d4	0.023821749
31	0xbd227730	-0.039664447
32	0x3d2bc574	0.041936353
33	0xbd43f586	-0.04784157
34	0xbd40e486	-0.047092937
35	0xbccc5f34	-0.02494774
36	0x3c872c09	0.01650049
37	0xbcb18386	-0.02166916
38	0x3d4fbd53	0.050717663
39	0x3ad5bc3e	0.0016306711
40	0xbd275df7	-0.040861096
41	0x3d292308	0.041293174
42	0x3d627c1e	0.05529415
43	0x3d76722d	0.06016748
44	0xbd383a65	-0.044977564
45	0x3d270cd8	0.040783733
46	0xbcf4cf67	-0.029884053
47	0x3c80ed0f	0.015738038
48	0x3cb70910	0.022343189
49	0xbd067c2f	-0.032833274

weight f4 [10, 50]
0	0x3e41b3d2	0.18916252
1	0xbd7af89e	-0.061272256
2	0x3e3ce9f8	0.18448627
3	0xbd93f9bb	-0.07225367
4	0xbc9d5ed2	-0.019210253
5	0x3e06514c	0.1311695
6	0xbaf2019c	-0.0018463614
7	0x3d646216	0.055757605
8	0x3d1b3149	0.0378888
9	0xbcc68f52	-0.024238262
10	0x3df5ca0c	0.12001428
11	0x3de60a28	0.11232406
12	0xbcb0249d	-0.021501834
13	0x3e3c0011	0.183594
14	0xbdeb06ec	-0.114759296
15	0xbe7a3eb9	-0.2443799
16	0xbcca5cd1	-0.024702461
17	0xbc913518	-0.017725512
18	0x3dbc85a0	0.092051744
19	0xbbcf24be	-0.0063215187
20	0x3de3cf9e	0.11123584
21	0x3d3b308b	0.04570059
22	0x3cf42647	0.029803408
23	0xbda7b446	-0.08188681
24	0xbe7df3bc	-0.24800009
25	0xbde214ba	-0.110391095
26	0x3e4cd6ee	0.20003864
27	0xbd9b1104	-0.07571605
28	0xbe757d91	-0.23973681
29	0xbe069b71	-0.13145234
30	0x3df11830	0.117721915
31	0x3d5cf51c	0.053944692
32	0xbe08a8f2	-0.13345698
33	0x3d40c772	0.047065206
34	0xbde608f9	-0.1123218
35	0xbbcbf60e	-0.0062244004
36	0x3daf7b7d	0.085684754
37	0xbd5c5cf4	-0.053799585
38	0xbdaf8a8d	-0.08571348
39	0xbd864b06	-0.06557278
40	0xbe0e5168	-0.13898242
41	0x3dd8a0a4	0.10577515
42	0xbe34971c	-0.17635769
43	0x3d060682	0.03272105
44	0xbde49d67	-0.111628346
45	0xbe0c463c	-0.13698667
46	0xbd0385ea	-0.032110132
47	0x3e30857e	0.17238423
48	0xbd59ce93	-0.05317552
49	0x3e0c32a1	0.13691188
50	0xbdd3f7a0	-0.10349965
51	0x3e1328c2	0.14371017
52	0x3db80b2a	0.089865044
53	0xbd89c8e8	-0.06727773
54	0x3e517b06	0.20457086
55	0x3e382adb	0.17985098
56	0xbd4bd878	-0.049766988
57	0x3e21f7d5	0.15817197
58	0xbbb808fe	-0.0056163063
59	0xbcbd1625	-0.023081848
60	0x3e3361f4	0.17517835
61	0xbd7235e5	-0.05913343
62	0xbd2b4421	-0.04181302
63	0xbe5f20ac	-0.21789807
64	0xbd6dfe4b	-0.05810384
65	0xbc949f6d	-0.018142426
66	0x3c6d0fe1	0.014469118
67	0x3dbe6279	0.09296126
68	0xbd5bea4e	-0.053690247
69	0xbd4ff079	-0.050766442
70	0x3dafd34a	0.08585222
71	0x3df334b1	0.118752845
72	0xbd86fa31	-0.06590689
73	0x3cdc6f87	0.02690865
74	0xbe483929	-0.19553055
75	0xbddee3c0	-0.108832836
76	0xbe0371b8	-0.12836349
77	0xbe3ba523	-0.18324713
78	0x3e63f229	0.22260346
79	0x3da54fd1	0.080718644
80	0x3e1566f5	0.14590056
81	0xbe69a1d4	-0.22815639
82	0xbe5764dc	-0.21034569
83	0xbd9040d6	-0.070436165
84	0x3d36b06a	0.044601835
85	0x3deaf39d	0.11472247
86	0x3d513459	0.051075313
87	0xbd173282	-0.036913402
88	0x3e0d851a	0.13820305
89	0xbbe2e08f	-0.006923742
90	0x3dcce70b	0.100050054
91	0xbd08762d	-0.033315826
92	0x3e0347a6	0.128203
93	0xbe321a39	-0.17392816
94	0x3c4e5b49	0.012595006
95	0xbd16208c	-0.036652133
96	0xbc8e57a2	-0.017375771
97	0xbe80a7a8	-0.25127912
98	0xbe3b2590	-0.18276048
99	0x3e84b154	0.2591654
100	0xbe435aea	-0.1907765
101	0x3e36fb35	0.17869265
102	0x3e6d8615	0.2319568
103	0xbd7caf77	-0.061690774
104	0x3e4ee236	0.2020348
105	0xbc5d60ea	-0.013511876
106	0x3da99201	0.08279801
107	0xbe15489c	-0.1457848
108	0x3e011d84	0.12608916
109	0xbe236125	-0.15955026
110	0x3e5d5bf1	0.21617104
111	0xbe0aaedf	-0.1354327
112	0x3d8776a9	0.066144295
113	0x3d54a8b1	0.05191869
114	0xbdadbcdd	-0.084832884
115	0xbd89849c	-0.06714746
116	0x3e31ab0e	0.17350408
117	0xbdebb522	-0.11509158
118	0x3d2c28f1	0.042031232
119	0xbddf0565	-0.10889701
120	0xbe16a325	-0.14710672
121	0x3cbb2b7c	0.022847883
122	0xbcd61970	-0.026135176
123	0x3d1539cb	0.03643207
124	0x3ccb29e8	0.024800256
125	0xbe3cb69a	-0.18429032
126	0xbe63e164	-0.22253948
127	0x3d00deba	0.03146241
128	0xbd28dc5c	-0.041225776
129	0xbe2bfc19	-0.16795386
130	0x3e561d1c	0.20909542
131	0x3db1f4fd	0.08689306
132	0x3d9c3f75	0.07629291
133	0x3d24751f	0.040150758
134	0x3e38a021	0.18029834
135	0xbbba70fe	-0.0056897392
136	0xbcfc85fc	-0.030825607
137	0xbd3fa3d6	-0.046787106
138	0x3a9d966e	0.0012022981
139	0x3d8017b1	0.06254519
140	0xbe26bb97	-0.16282497
141	0xbe0f5553	-0.13997392
142	0xbe6b011d	-0.22949643
143	0xbe032c78	-0.12809932
144	0xbd09598d	-0.033532668
145	0x3bf39066	0.007432985
146	0x3e59ac0d	0.21257038
147	0x3d232c91	0.039837424
148	0x3e4a390b	0.19748323
149	0x3cff1c14	0.031141318
150	0xbe2dc57a	-0.16969863
151	0x3df3f72e	0.1191238
152	0xbcb5a523	-0.02217347
153	0x3e581087	0.21100055
154	0xbdb8bccc	-0.09020385
155	0x3c0c1d22	0.008551868
156	0x3dcaa895	0.09895436
157	0xbe32f46b	-0.1747605
158	0xbd999961	-0.07499958
159	0xbb82865e	-0.003983303
160	0xbde89e26	-0.113582894
161	0x3d08c695	0.033392508
162	0xbda0056b	-0.078135334
163	0xbdee2955	-0.11628977
164	0x3dfa51ba	0.12222619
165	0xbe3c1101	-0.18365861
166	0x3d2663dc	0.040622577
167	0xbd81c8cc	-0.06337127
168	0xbe0c9943	-0.1373034
169	0xbe0c0031	-0.13671948
170	0x3e2ce9fe	0.16886136
171	0xbda6cb87	-0.081442885
172	0x3e7557ba	0.23959246
173	0x3d1ae8d7	0.03781971
174	0x3d8f3cd5	0.06994025
175	0xbd93b568	-0.07212335
176	0xbe8598f8	-0.26093268
177	0x3e17be89	0.14818777
178	0xbdacccc8	-0.084374964
179	0xbd96ce51	-0.073635705
180	0xbe133083	-0.14373975
181	0xbb58213a	-0.003297879
182	0x3d905718	0.07047862
183	0x3caa043b	0.02075397
184	0x3e98868e	0.29790157
185	0xbe0d26b6	-0.13784298
186	0x3e389e0b	0.18029039
187	0x3dcf7940	0.101305485
188	0xbe354416	-0.17701754
189	0x3d680bf7	0.056652036
190	0x3dc9565b	0.09830924
191	0xbdc4472d	-0.09583888
192	0x3dad239f	0.0845406
193	0xbd989adb	-0.07451411
194	0x3e8de3d2	0.27712876
195	0x3d2d96c9	0.042380128
196	0xbe17eab6	-0.14835629
197	0x3dfb7687	0.12278467
198	0xbdcdd2e8	-0.10049993
199	0x3db16716	0.0866224
200	0xbc1e51fe	-0.009663103
201	0xbcee5e09	-0.029097574
202	0xbd9157da	-0.070968345
203	0xbd580fa2	-0.052749284
204	0xbe38c0eb	-0.18042342
205	0x3db32304	0.08746913
206	0x3cf9c315	0.03048853
207	0x3d70b9f3	0.058771085
208	0xbcb96cb6	-0.022634845
209	0x3dbb85c2	0.09156372
210	0xbd204676	-0.039129697
211	0xbd9ba420	-0.07599664
212	0xbda53b24	-0.08067921
213	0xbe76aacd	-0.24088593
214	0xbdb191e8	-0.086704075
215	0x3eaac047	0.3334982
216	0x3d86619d	0.06561587
217	0xbdc94609	-0.09827811
218	0xbd599e98	-0.053129762
219	0xbd8eb31b	-0.069677554
220	0xbc04825a	-0.008087719
221	0xbe0f2f32	-0.13982847
222	0xbe1c76ca	-0.1527969
223	0x3c4a9aa9	0.012365975
224	0x3ddf979f	0.10917591
225	0x3d89fcc0	0.06737661
226	0xbdcdae51	-0.10043014
227	0xbe793bed	-0.24339266
228	0x3de84464	0.113411695
229	0x3d47bf6c	0.04876654
230	0xbd09b98c	-0.033624217
231	0x3ddd5a1e	0.10808204
232	0xbe507175	-0.2035578
233	0xbb819ea3	-0.0039556785
234	0xbe3d609b	-0.18493883
235	0x3e5d0a3e	0.21585938
236	0xbe2c131f	-0.16804169
237	0x3dd23589	0.10264117
238	0xbdece9e6	-0.1156805
239	0x3e256d38	0.16154945
240	0xbd4ea02c	-0.05044572
241	0x3e2c414f	0.16821788
242	0xbd3fbfd7	-0.046813812
243	0xbd83d49f	-0.06437039
244	0xbe26db3d	-0.1629457
245	0xbdb30e75	-0.08742992
246	0xbe06a610	-0.13149285
247	0x3e61f743	0.22066979
248	0x3e20680c	0.1566469
249	0x3aa991fc	0.0012937183
250	0x3d8d6cd2	0.069055215
251	0xbe0e0020	-0.13867235
252	0xbd350f52	-0.044204064
253	0x3d14f571	0.036366884
254	0x3d400fa4	0.046889916
255	0xbc80fb7a	-0.015744913

bias f4 [10]
0	0xbc0057ee	-0.007833464
1	0x3cce1edf	0.025161205
2	0xbd14db0c	-0.036341712
3	0x3d946cf7	0.07247346
4	0xbd8fb763	-0.070174
5	0x3d707659	0.058706615
6	0xbda3d671	-0.07999886
7	0x3d10e0bd	0.035370577
8	0x3da0b7d3	0.07847562
9	0x3dc5f789	0.09666354
