CNN/cpp/mnist_cnn_cpu.pt (torch, 93881 bytes, 8 tensors)

weight f4 [10, 1, 5, 5]
0.29778385 0.34841862 0.09735748 0.3000121 0.26712856 0.3090395 0.19870213 0.45096526
0.18596004 0.011945805 -0.0005856205 0.3261013 0.11559349 0.11193077 0.14568487 0.2595304
0.20648576 0.004693511 -0.0022930608 -0.02442565 0.08896992 -0.20555358 -0.0347392 -0.26650548
-0.120887 0.054098256 -0.22880353 -0.19644736 -0.18594752 -0.18800691 -0.17766382 -0.13502836
-0.2196526 -0.19164388 0.15649913 0.21933353 0.041148905 0.0864052 0.03354092 0.013748754
0.025688477 0.2110696 0.246808 0.02420343 0.034270883 0.08645313 0.24413414 0.12088922
0.11000984 -0.0839368 0.15496765 -0.06944088 -0.05485201 -0.103201464 0.0060010296 0.023396913
-0.10727314 -0.06308337 -0.081363924 0.06495582 -0.094540484 0.110282555 0.09217298 -0.100367226
0.12220556 -0.11319623 -0.12909777 -0.11974747 0.22596943 -0.049493663 0.17137028 -0.13253485
0.04358331 -0.074568406 0.18256935 -0.050395768 0.19129126 0.108364806 -0.13984075 0.15970634
-0.15435635 0.100915775 0.045487277 0.3430786 0.33753198 0.1997845 0.15270095 0.41654566
0.4630608 0.24398139 -0.2013535 0.16679244 0.1582815 0.39779294 0.3562813 -0.11523504
0.023101607 0.07945659 0.2592346 0.1621826 -0.21312031 0.11956236 0.10200074 0.06882484
0.18089332 -0.24268886 -0.14894612 0.22017202 0.27317095 -0.024022348 0.105654985 0.0955087
0.29317978 0.0866502 -0.09277224 0.25489527 0.16036241 0.2451445 0.28345013 0.23380595
-0.17369458 0.05447591 -0.0990139 0.12789315 0.06756981 0.058763266 0.028292522 0.14467193
0.036128346 0.15397951 0.19333272 0.065347895 -0.14186192 0.11931546 0.020040141 -0.076793484
0.16803487 -0.15087397 -0.010936334 -0.20783688 0.08511407 -0.022096809 0.07445572 0.026948333
0.01807505 -0.145322 -0.15057445 -0.2276369 -0.14044614 -0.12302995 -0.14091681 -0.09472546
-0.1932719 0.1960705 0.33311665 -0.1645462 -0.27376324 -0.0058653653 -0.03828207 0.25836453
-0.16261853 0.036371324 0.044653114 0.27818432 0.11900269 -0.15768011 -0.20016505 0.0011281848
0.05449129 0.13976894 0.03246761 -0.10504255 0.03631538 0.09111542 0.2089888 -0.17624497
0.06407411 -0.15823327 0.27253774 0.3066573 -2.2904032e-05 -0.11651906 -0.1196534 0.38081104
0.3259026 -0.15389128 0.21078575 0.10752238 0.13104147 -0.009948698 0.042393208 0.16018659
0.06545594 -0.055451564 0.070579365 0.10088227 -0.17586339 0.14716 -0.012286668 -0.1413889
-0.021115959 -0.06408677 0.015079225 -0.1405158 -0.06400986 -0.08455842 -0.16421603 0.10795106
0.18963127 0.18150401 -0.007278684 0.27713966 0.42797413 0.45159388 0.30856565 0.06468433
0.22951646 0.4042822 0.22343795 0.15493712 -0.031418294 -0.040029805 0.09979384 0.21125433
0.27511963 0.22237529 0.31458336 0.16845651 0.1976923 0.12502752 0.12656966 -0.072125204
-0.005010498 0.04377496 -0.15092178 -0.16886654 -0.05337907 0.06158091 -0.12405655 -0.18035708
-0.226186 -0.15568493 -0.20527163 0.0013033642 0.17408372 0.085456185 -0.1344896 -0.0063953702
-0.1252574 -0.030038439
00000000: 2077 983e ed63 b23e 5c63 c73d 309b 993e
00000010: 13c5 883e 6d3a 9e3e 9278 4b3e ebe4 e63e
00000020: 4f6c 3e3e 56b8 433c 5484 19ba c0f6 a63e
00000030: 48bc ec3d f63b e53d 6a2e 153e 2be1 843e
00000040: 0171 533e 06cc 993b 2d47 16bb 4d18 c8bc
00000050: dd35 b63d a37c 52be b14a 0ebd 6873 88be
00000060: 9a93 f7bd 2296 5d3d 794b 6abe 7f29 49be
00000070: 0769 3ebe e284 40be 81ed 35be e044 0abe
00000080: 9cec 60be 4b3e 44be 4f41 203e f898 603e
00000090: c18b 283d 36f5 b03d 3462 093d 7442 613c
000000a0: a470 d23c a122 583e 3dbb 7c3e 4646 c63c
000000b0: a05f 0c3d 570e b13d 4dfe 793e c494 f73d
000000c0: d74c e13d 0fe7 abbd d7af 1e3e 0537 8ebd
000000d0: 80ac 60bd 4a5b d3bd 49a4 c43b e2aa bf3c
000000e0: 05b2 dbbd db31 81bd 21a2 a6bd 8f07 853d
000000f0: 719e c1bd d2db e13d 30c5 bc3d 558d cdbd
00000100: e946 fa3d 6dd3 e7bd 3532 04be 293e f5bd
00000110: 8864 673e deb9 4abd b17b 2f3e 37b7 07be
00000120: 6a84 323d 52b7 98bd 76f3 3a3e cb6b 4ebd
00000130: dbe1 433e 5eee dd3d 6a32 0fbe 0f8a 233e
00000140: 970f 1ebe eeac ce3d de50 3a3d 00a8 af3e
00000150: fed0 ac3e 4f94 4c3e a35d 1c3e 7945 d53e
00000160: 4e16 ed3e 42d6 793e 9d2f 4ebe a3cb 2a3e
00000170: 8c14 223e 84ab cb3e 816a b63e 5900 ecbd
00000180: 953f bd3c 23ba a23d 66ba 843e 3213 263e
00000190: 363c 5abe 1cdd f43d c4e5 d03d 0af4 8c3d
000001a0: 193c 393e 6e83 78be 5585 18be c674 613e
000001b0: 10dd 8b3e 84ca c4bc a461 d83d 119a c33d
000001c0: a91b 963e a975 b13d 5fff bdbd a281 823e
000001d0: 0b36 243e 2907 7b3e 6020 913e d46a 6f3e
000001e0: fedc 31be 2222 5f3d cdc7 cabd 6cf6 023e
000001f0: 0a62 8a3d c0b1 703d b8c5 e73c e124 143e
00000200: 51fb 133d ceac 1d3e 03f9 453e 1ed5 853d
00000210: 4044 11be aa5b f43d 392b a43c e745 9dbd
00000220: 5511 2c3e b57e 1abe 4f2e 33bc 31d3 54be
00000230: 4950 ae3d 5e04 b5bc 3e7c 983d c0c2 dc3c
00000240: 2112 943c 4acf 14be 3030 1abe a619 69be
00000250: 1dd1 0fbe 20f7 fbbd 7f4c 10be 6cff c1bd
00000260: 12e9 45be b5c6 483e 448e aa3e cd7e 28be
00000270: b22a 8cbe 4032 c0bb a9cd 1cbd 5b48 843e
00000280: 7985 26be 19fa 143d 2fe6 363d 2d6e 8e3e
00000290: afb7 f33d e576 21be 11f8 4cbe 9adf 933a
000002a0: 4232 5f3d 971f 0f3e c2fc 043d 8c20 d7bd
000002b0: 70bf 143d b99a ba3d 2901 563e 9079 34be
000002c0: 4939 833d e707 22be 118a 8b3e 3002 9d3e
000002d0: 0922 c0b7 8ca1 eebd d70c f5bd aaf9 c23e
000002e0: b5dc a63e ad95 1dbe 38d8 573e b234 dc3d
000002f0: bc2f 063e ddff 22bc 80a4 2d3d f407 243e
00000300: c40d 863d 2e21 63bd ea8b 903d 5d9b ce3d
00000310: 8815 34be 1cb1 163e 054e 49bc 40c8 10be
00000320: 60fb acbc ed3f 83bd db0e 773c 60e3 0fbe
00000330: 9a17 83bd f72c adbd 3f28 28be 7215 dd3d
00000340: b32e 423e 30dc 393e 0782 eebb 40e5 8d3e
00000350: 6d1f db3e 5037 e73e 51fc 9d3e 3879 843d
00000360: 5d06 6b3e 14fe ce3e ebcc 643e d6a7 1e3e
00000370: 78b0 00bd 4bf6 23bd b660 cc3d 0e53 583e
00000380: 7bdc 8c3e 59b6 633e 1211 a13e dd7f 2c3e
00000390: da6f 4a3e 3707 003e 7a9b 013e 61b6 93bd
000003a0: 1b2f a4bb 5f4d 333d 3d8b 1abe 5aeb 2cbe
000003b0: 03a4 5abd 443c 7c3d 5c11 febd 87af 38be
000003c0: 4e9d 67be df6b 1fbe ba32 52be a5d5 aa3a
000003d0: 0143 323e a703 af3d a4b7 09be 4190 d1bb
000003e0: 7a43 00be 2c13 f6bc

bias f4 [10]
0.04845072 -0.08940225 -0.04269383 0.28364348 -0.07037682 0.026042989 0.13520278 0.20097408
0.16686578 0.095014215
00000000: 4374 463d 8718 b7bd badf 2ebd b839 913e
00000010: b921 90bd 1b58 d53c 9972 0a3e 26cc 4d3e
00000020: ddde 2a3e d096 c23d

weight f4 [20, 10, 5, 5]
-0.031583004 0.032338135 0.02306573 0.0407982 -0.0033640438 0.073360674 0.021984618 -0.0402179
0.10351472 0.08501039 0.07579617 0.07296392 -0.038573273 -0.015346685 -0.032647453 0.04725579
0.033602487 0.0044150376 0.032378692 -0.028254014 -0.036888804 0.012210315 0.008836937 0.024787176
0.058636885 -0.032926057 -0.06267856 0.0022887564 0.061342336 -0.0035310108 -0.00936435 -0.015516463
-0.031998996 0.02422358 0.014880499 -0.012714605 -0.031677082 -0.025082344 0.006601128 0.085242406
-0.008519864 0.06986213 0.015409859 0.054006804 0.013665308 -0.013356753 0.051390897 -0.029327827
0.0060140803 0.031436864 0.062318914 0.0010021062 -0.05118299 -0.00051139394 -0.03209273 0.011053643
-0.03981288 -0.03486894 0.0062505603 -0.039575256 0.053782806 -0.01189164 0.056425426 -0.033835966
0.046610214 -0.05265039 0.041408096 0.012406455 -0.035185795 0.014476544 -0.05771887 0.0029951038
0.03519002 0.020776523 -0.0068847854 0.03897294 -0.002174169 -0.0069765397 -0.0076709036 0.023097377
0.004869582 -0.005999791 -0.084912114 -0.054782137 -0.06419075 0.0485909 -0.09320947 -0.10551161
-0.033413414 -0.06419764 0.07126981 -0.0017611387 -0.05728573 0.04066185 0.02329488 0.030003648
0.044265967 -0.020518867 -0.042819537 -0.020457674 0.037362054 0.038758732 0.004017767 0.0942927
0.00040347336 -0.01931426 -0.022929365 -0.005575826 -0.034676075 -0.063380495 0.053682867 -0.016383825
-0.06213201 -0.04321425 -0.059459124 0.036444504 -0.08034751 -0.08666689 -0.05683774 -0.038672198
0.061239075 0.019372426 0.0653502 0.05709661 -0.06275571 0.045400206 0.019006405 0.057088252
0.076477736 0.05744796 0.01858879 -0.02708585 0.07662453 0.056999397 0.08177896 -0.05541326
0.03460235 -0.065801136 -0.04067031 -0.026464263 0.022795351 -0.042952824 -0.042696103 -0.025041847
0.04105152 -0.0521084 -0.033145092 0.035486445 -0.011615838 -0.034634024 0.026717762 0.044088066
-0.02613092 0.030522512 0.050435074 -0.010952753 -0.03740898 -0.024447333 -0.07962998 -0.069627464
-0.031078856 0.01446027 0.021340584 0.010986251 0.01017576 0.06560017 -0.056420065 0.01040983
-0.03696043 -0.007875253 0.014900283 0.03871229 0.07120932 -0.0051522763 -0.03435753 -0.02468296
0.025180943 0.029398322 -0.0074325353 0.07801409 -0.020623213 0.034079134 0.055620193 0.050913338
0.022745175 -0.028071744 0.02265413 0.032802776 -0.043623906 -0.057382416 0.026254836 0.022593115
0.04154043 0.024478603 0.022601165 -0.048110362 0.056358244 0.014471253 -0.0013278006 -0.0581282
0.060399555 -0.01299967 0.037540138 0.03544967 -0.016594307 -0.010952303 -0.091839984 -0.041466065
-0.076528996 -0.07337542 0.06187949 -0.09683424 -0.06375914 0.027265176 0.015545906 0.026134867
-0.08304318 0.012775638 0.07688801 0.10025161 -0.0027451843 0.0931703 0.02952577 -0.056521963
0.015856601 0.029331505 0.014064922 -0.021295339 0.07259376 -0.0037667095 0.053207178 0.07120218
0.0688915 0.09785097 0.04833851 -0.06505641 -0.0024048397 0.016000021 0.07092261 0.05689495
0.05245052 0.018162297 -0.054082632 0.008609041 0.066747986 0.012043656 0.027870223 -0.059242286
-0.03899612 0.06192503 0.11100618 0.011188597 0.042245127 -0.0030965984 0.0653535 0.033367034
00000000: 2e5d 01bd fe74 043d 58f4 bc3c 031c 273d
00000010: 4a77 5cbb 1f3e 963d 1619 b43c 86bb 24bd
00000020: 87ff d33d ed19 ae3d 063b 9b3d 1c6e 953d
00000030: 02ff 1dbd aa70 7bbc 56b9 05bd 4a8f 413d
00000040: c3a2 093d 05ac 903b 859f 043d f674 e7bc
00000050: b718 17bd c60d 483c cdc8 103c 7a0e cb3c
00000060: 3b2d 703d 79dd 06bd 9e5d 80bd f6fe 153b
00000070: 1a42 7b3d 8868 67bb ee6c 19bc c338 7ebc
00000080: 6111 03bd 8770 c63c 56cd 733c eb50 50bc
00000090: d4bf 01bd 7d79 cdbc 464e d83b 9293 ae3d
000000a0: e696 0bbc e013 8f3d a279 7c3c 3d36 5d3d
000000b0: 75e4 5f3c 48d6 5abc 437f 523d e940 f0bc
000000c0: c311 c53b f1c3 003d 1e42 7f3d 1b59 833a
000000d0: 41a5 51bd 110f 06ba ab73 03bd 571a 353c
000000e0: d512 23bd bcd2 0ebd 80d1 cc3b aa19 22bd
000000f0: 5c4b 5c3d 27d5 42bc 591e 673d 9597 0abd
00000100: 5aea 3e3d efa7 57bd 899b 293d 7244 4b3c
00000110: fb1e 10bd 072f 6d3c 9f6a 6cbd 8149 443b
00000120: 6923 103d 8733 aa3c c499 e1bb 17a2 1f3d
00000130: 817c 0ebb 759b e4bb 345c fbbb b636 bd3c
00000140: 0491 9f3b e599 c4bb 67e6 adbd 3c63 60bd
00000150: 7176 83bd 4007 473d 9be4 bebd 7916 d8bd
00000160: 81dc 08bd 0d7a 83bd e8f5 913d 02d6 e6ba
00000170: 71a4 6abd 0a8d 263d e7d4 be3c 36ca f53c
00000180: 3b50 353d 2f17 a8bc 8a63 2fbd da96 a7bc
00000190: f408 193d 7ac1 1e3d 79a7 833b 881c c13d
000001a0: 4789 d339 f038 9ebc 5dd6 bbbc 6bb5 b6bb
000001b0: 8008 0ebd a2cd 81bd 91e2 5b3d 5f37 86bc
000001c0: 227e 7ebd 6d01 31bd 698b 73bd d546 153d
000001d0: 3c8d a4bd 697e b1bd b1ce 68bd bd66 1ebd
000001e0: d3d5 7a3d ecb2 9e3c 53d6 853d 23de 693d
000001f0: 1186 80bd 91f5 393d 52b3 9b3c 5fd5 693d
00000200: 5ca0 9c3d 8d4e 6b3d 8547 983c 25e3 ddbc
00000210: 52ed 9c3d 3378 693d ba7b a73d 04f9 62bd
00000220: 32bb 0d3d bfc2 86bd e995 26bd 95cb d8bc
00000230: 51bd ba3c 4def 2fbd 1ce2 2ebd 8f24 cdbc
00000240: a325 283d 9e6f 55bd 26c3 07bd 3c5a 113d
00000250: 5b50 3ebc 68dc 0dbd 35df da3c b095 343d
00000260: 8310 d6bc 590a fa3c 0295 4e3d 2d73 33bc
00000270: 293a 19bd c645 c8bc 0b15 a3bd d898 8ebd
00000280: 1699 febc c5ea 6c3c 73d2 ae3c adff 333c
00000290: 3bb8 263c 6259 863d ba18 67bd fe8d 2a3c
000002a0: d263 17bd 3507 01bc 5120 743c c790 1e3d
000002b0: 31d6 913d 6dd4 a8bb 7bba 0cbd eb33 cabc
000002c0: 4448 ce3c c0d4 f03c a08c f3bb dac5 9f3d
000002d0: 03f2 a8bc 9096 0b3d 00d2 633d 818a 503d
000002e0: 1754 ba3c b7f6 e5bc 2795 b93c 345c 063d
000002f0: fbae 32bd d309 6bbd 6214 d73c 3215 b93c
00000300: 4c26 2a3d 5a87 c83c 1426 b93c 5f0f 45bd
00000310: e7d7 663d d618 6d3c 9809 aeba d617 6ebd
00000320: 8665 773d 91fc 54bc b0c3 193d ac33 113d
00000330: c9f0 87bc 4a71 33bc 9a16 bcbd 52d8 29bd
00000340: 3cbb 9cbd da45 96bd 5975 7d3d 0851 c6bd
00000350: 2794 82bd 385b df3c 41b4 7e3c ca18 d63c
00000360: 8b12 aabd e950 513c 7677 9d3d b750 cd3d
00000370: 8de8 33bb 12d0 be3d 07e0 f13c 9383 67bd
00000380: b4e5 813c a048 f03c 8f70 663c 9073 aebc
00000390: 0aac 943d e6da 76bb c5ef 593d 73d2 913d
000003a0: fd16 8d3d 1766 c83d 9afe 453d 4c3c 85bd
000003b0: 849a 1dbb 7a12 833c e03f 913d ae0a 693d
000003c0: 5bd6 563d 19c9 943c c085 5dbd ef0c 0d3c
000003d0: 2bb3 883d c152 453c 1850 e43c 0aa8 72bd
000003e0: 65ba 1fbd 1aa5 7d3d 3557 e33d 6150 373c
000003f0: 3a09 2d3d 4df0 4abb 0ed8 853d dfab 083d

bias f4 [20]
0.017022368 -0.008784909 0.014069083 0.014411127 -0.028134873 -0.008901796 0.02814361 0.03723327
-2.6034595e-05 -0.018210743 -0.029664638 -0.07456865 0.024289219 0.06590094 0.012537296 -0.03059289
-0.03126306 0.01174355 0.04876287 0.030558921
00000000: 7e72 8b3c 94ee 0fbc 0382 663c a61c 6c3c
00000010: 1b7b e6bc d7d8 11bc 6e8d e63c ea81 183d
00000020: de64 dab7 b22e 95bc 4103 f3bc 73b7 98bd
00000030: 2ffa c63c 12f7 863d 3b69 4d3c f19d fabc
00000040: b20d 00bd 0568 403c 93bb 473d b456 fa3c

weight f4 [50, 320]
0.005239731 0.020663997 0.010670291 0.015590493 0.0005812465 0.03969173 0.080646105 0.04385393
0.016351184 -0.008575278 0.05395008 0.012088699 0.00628778 0.017509362 -0.014028199 0.04033106
0.030257849 0.0338418 0.043235853 0.035430543 0.030830536 -0.01443041 -0.043359548 0.031899527
-0.037712216 -0.013560317 -0.0006777391 -0.01874832 -0.00056402356 -0.040004693 -0.05903894 -0.06787621
-0.0021096594 0.015867671 -0.055452023 0.023129743 0.028844582 -0.0039577675 -0.070755996 -0.048006065
-0.024600482 -0.0022555601 -0.037120495 -0.067985475 -0.029121071 -0.044276506 0.025306555 0.010545729
0.011861341 -0.048756227 0.013552731 0.018789642 0.02253998 0.042756025 -0.03586259 -0.0031442784
-0.036846492 -0.023811892 -0.0425951 0.0077340207 -0.05255838 0.019915244 0.0415435 -0.023703415
0.012327818 0.040868707 0.079508066 0.0994131 0.015857385 -0.04029478 -0.024229389 -0.003410413
0.067220114 0.053733084 -0.067958824 0.013629046 -0.0023155818 -0.019796772 0.0035954604 -0.048040207
-0.0027324657 0.03470419 0.035843905 -0.03679706 0.04653567 -0.001909788 -0.050869577 -0.06416387
0.05505949 0.058075994 -0.03648512 0.0026211417 0.007698137 0.00025168958 -0.06053357 0.007787962
-0.0034749296 -0.012610277 0.028468909 0.0064574196 0.024009107 0.009664323 0.011506889 0.022685405
0.009587519 -0.029360475 -0.0076280585 -0.03994341 0.03579067 0.009866001 -0.045512028 0.03292036
0.024876885 0.019231562 -0.02993243 0.07828182 0.0058397218 -0.006533056 -0.061601277 0.04189802
-0.06764865 0.014675567 -0.02767238 -0.015315949 -0.029056592 -0.023701953 0.01619604 -0.004620514
0.04041864 0.045745887 -0.063486405 0.05023987 0.054135095 0.018063758 -0.056222893 -0.011101958
0.0631675 -0.006796365 -0.00038223763 0.006314024 0.0396214 0.07632337 0.029738769 -0.05959654
-0.050917614 -0.058255184 -0.012088341 0.020418616 0.007583784 -0.0359435 -0.0020120859 0.021615792
-0.028695002 -0.05680202 -0.021610484 -0.05540565 0.026546156 -0.0469547 0.02390095 0.04296517
-0.028646527 -0.037435606 -0.018647151 -0.025934318 -0.019489734 0.006713767 0.022297079 -0.025782295
0.05938259 0.02296006 0.013456043 0.04731411 0.040403306 0.022006042 -0.06753886 0.0063592563
-0.027658485 0.030856492 -0.065424144 -0.03815614 0.06486722 0.07984187 0.007990257 0.051908925
0.011019943 -0.012490991 0.073964775 0.04139339 0.05534135 -0.016251575 0.023058712 -0.06466577
-0.053049386 -0.029998863 -0.018848162 -0.035779357 -0.06120212 -0.041200344 -0.051636808 -0.010801733
-0.031906184 0.027569165 0.026028546 0.04070373 0.018372005 0.026148068 0.027414687 0.018235322
-0.02290188 -0.023177646 -0.054355334 0.018642506 0.028502762 -0.021107886 -0.016280534 -0.040993985
-0.011099112 -0.06394317 -0.03728562 -0.019714953 -0.033355385 0.02380977 -0.02898504 -0.029769363
-0.0023435552 -0.03174703 0.016598493 -0.010818539 -0.026177628 0.021555921 -0.014676909 0.033218328
-0.009029043 0.03412111 0.05576569 -0.013947147 0.009313173 -0.052466437 -0.02332471 -0.016340764
-0.067542695 0.02144412 0.014120386 0.016517324 -0.05611532 -0.0065902094 0.042274747 0.044365656
-0.020188464 -0.04357658 -0.00026058115 -0.069017425 -0.04598323 0.086404465 0.0053904057 -0.054054577
00000000: 0db2 ab3b 8b47 a93c 72d2 2e3c 446f 7f3c
00000010: cb5e 183a cc93 223d c929 a53d 2ea0 333d
00000020: ebf2 853c 537f 0cbc c2fa 5c3d ae0f 463c
00000030: b909 ce3b cb6f 8f3c 88d6 65bc 2e32 253d
00000040: 4fdf f73c b39d 0a3d 1418 313d 9e1f 113d
00000050: 5290 fc3c 876d 6cbc c899 31bd 14a9 023d
00000060: 2078 1abd 182c 5ebc 4daa 31ba 1496 99bc
00000070: fbda 13ba f6db 23bd d1d2 71bd af02 8bbd
00000080: 3642 0abb ebfc 813c a921 63bd 967a bd3c
00000090: 794b ec3c 29b0 81bb 85e8 90bd 02a2 44bd
000000a0: f386 c9bc 05d2 13bb a90b 18bd f83b 8bbd
000000b0: 508f eebc 485b 35bd b14f cf3c fec7 2c3c
000000c0: 1256 423c 9cb4 47bd 460c 5e3c bcec 993c
000000d0: c4a5 b83c f120 2f3d a7e4 12bd 3d10 4ebb
000000e0: 59ec 16bd 2811 c3bc 3378 2ebd ab6d fd3b
000000f0: 7547 57bd 4b25 a33c 8429 2a3d aa2d c2bc
00000100: 9efa 493c f265 273d 20d5 a23d 1899 cb3d
00000110: 59e7 813c 240c 25bd b67c c6bc 3c81 5fbb
00000120: b3aa 893d 3917 5c3d ff2d 8bbd 5d4c 5f3c
00000130: 04c1 17bb d72c a2bc d1a1 6b3b cfc5 44bd
00000140: 2b13 33bb fb25 0e3d 0fd1 123d 84b8 16bd
00000150: 309c 3e3d da51 faba 9e5c 50bd 5968 83bd
00000160: 0f86 613d 18e1 6d3d 6c71 15bd 76c7 2b3b
00000170: a740 fc3b 34f5 8339 0cf2 77bd 2932 ff3b
00000180: a5bb 63bb 569b 4ebc a137 e93c c398 d33b
00000190: bfae c43c 1c57 1e3c 6487 3c3c bed6 b93c
000001a0: f814 1d3c 6185 f0bc cbf4 f9bb b39b 23bd
000001b0: 3d99 123d 02a5 213c d26a 3abd 80d7 063d
000001c0: 9cca cb3c 828b 9d3c db34 f5bc 3852 a03d
000001d0: 235b bf3b 3f13 d6bb 9f51 7cbd 429d 2b3d
000001e0: 608b 8abd ca71 703c 30b1 e2bc bfef 7abc
000001f0: 1708 eebc 992a c2bc 8fad 843c ae67 97bb
00000200: 048e 253d 0a60 3b3d 2905 82bd 52c8 4d3d
00000210: c3bc 5d3d 72fa 933c fa49 66bd fde4 35bc
00000220: f65d 813d 0bb4 debb 1167 c8b9 dfe5 ce3b
00000230: 0d4a 223d 6d4f 9c3d b89e f33c 801b 74bd
00000240: fd8e 50bd fd9c 6ebd 2d0e 46bc f144 a73c
00000250: 6481 f83b 7e39 13bd 33dd 03bb 9a13 b13c
00000260: c811 ebbc 3ca9 68bd 7808 b1bc 09f1 62bd
00000270: 5377 d93c 9253 40bd edcb c33c 3ffc 2f3d
00000280: 1fac eabc 1456 19bd e9c1 98bc 3574 d4bc
00000290: efa8 9fbc 29ff db3b 5da8 b63c 6435 d3bc
000002a0: 293b 733d bc16 bc3c bc76 5c3c 71cc 413d
000002b0: f07d 253d 0446 b43c d051 8abd 4f61 d03b
000002c0: 0c94 e2bc c1c6 fc3c 18fd 85bd 9d49 1cbd
000002d0: 1bd9 843d 2284 a33d 91e9 023c 749e 543d
000002e0: fe8c 343c 03a7 4cbc d87a 973d 1e8c 293d
000002f0: 9dad 623d 0622 85bc a0e5 bc3c 7d6f 84bd
00000300: 504a 59bd 2dc0 f5bc 7667 9abc 608d 12bd
00000310: 13af 7abd b1c1 28bd 1e81 53bd c0f9 30bc
00000320: 0fb0 02bd bbd8 e13c d139 d53c f4b8 263d
00000330: e380 963c 7934 d63c c494 e03c 3e62 953c
00000340: b99c bbbc 0cdf bdbc b3a3 5ebd 2bb8 983c
00000350: a07e e93c 72ea acbc c15e 85bc 4fe9 27bd
00000360: 0dd9 35bc a3f4 82bd ceb8 18bd 4181 a1bc
00000370: a89f 08bd b50c c33c 0972 edbc e1de f3bc
00000380: 5596 19bb 2c09 02bd 90f9 873c 3e40 31bc
00000390: 7772 d6bc 0b96 b03c 6b77 70bc f10f 083d
000003a0: 8dee 13bc 94c2 0b3d 906a 643d 9382 64bc
000003b0: 4796 183c 0ce7 56bd 7613 bfbc 11dd 85bc
000003c0: d353 8abd 94ab af3c 3159 673c 574f 873c
000003d0: 2ed9 65bd aff2 d7bb 4928 2d3d c3b8 353d
000003e0: 4762 a5bc 5b7d 32bd 9c9e 88b9 0259 8dbd
000003f0: e958 3cbd d3f4 b03d 00a2 b03b 5568 5dbd

bias f4 [50]
0.025183773 -0.044761114 0.009753677 -0.0014580312 0.027628392 0.0065123714 -0.0008058023 -0.022531042
0.053016547 -0.0042261146 0.05301281 -0.034325764 -0.04769052 0.024846515 -0.010414532 -0.018205639
0.053962294 -0.002207577 -0.012115658 -0.034170285 0.045390654 -0.0034023302 -0.04145506 -0.028580232
0.020097924 0.012377169 -0.012297902 0.03586031 0.03179812 0.032707777 0.023777446 -0.03968404
0.04191284 -0.04785132 -0.047169283 -0.024954543 0.016446088 -0.021688307 0.050649084 0.0014852289
-0.04096547 0.041178368 0.05538983 0.060204618 -0.0449638 0.040761124 -0.029944312 0.015738398
0.022471352 -0.033022832
00000000: 334e ce3c 6e57 37bd e3cd 1f3c 691b bfba
00000010: f054 e23c bb65 d53b 7a3c 53ba 0593 b8bc
00000020: e127 593d 387b 8abb f623 593d 2c99 0cbd
00000030: 2257 43bd eb8a cb3c b7a1 2abc fe23 95bc
00000040: 9107 5d3d ffac 10bb c180 46bc 24f6 0bbd
00000050: 8deb 393d a1f9 5ebb c8cc 29bd 1721 eabc
00000060: 67a4 a43c 9cc9 4a3c 247d 49bc 43e2 123d
00000070: bf3e 023d 97f8 053d ebc8 c23c bb8b 22bd
00000080: ccac 2b3d bfff 43bd 9434 41bd 786d ccbc
00000090: f2b9 863c adab b1bc 6a75 4f3d 03ac c23a
000000a0: 69cb 27bd a6aa 283d 72e0 623d 1e99 763d
000000b0: f62b 38bd 23f5 263d c64d f5bc d0ed 803c
000000c0: d715 b83c f342 07bd

weight f4 [10, 50]
0.19023095 -0.061230704 0.18453772 -0.07189013 -0.01995544 0.13188793 -0.0025508197 0.05592689
0.038420413 -0.02700937 0.12041123 0.11232321 -0.021471662 0.1842727 -0.114759296 -0.24368195
-0.024900964 -0.01785415 0.09281567 -0.006230556 0.11064773 0.045697883 0.030369623 -0.082413964
-0.24741516 -0.11072398 0.20061155 -0.076546565 -0.24076478 -0.1317319 0.11940283 0.05377313
-0.13362108 0.04706986 -0.111805305 -0.005904494 0.08588003 -0.05378169 -0.087828286 -0.06929537
-0.1382817 0.105860844 -0.1759798 0.032874018 -0.111523904 -0.13697489 -0.033123404 0.1735384
-0.0544177 0.13526998 -0.102436796 0.14310592 0.088677496 -0.06829478 0.20429741 0.18329176
-0.048747096 0.15693474 -0.0063884426 -0.023068516 0.17473882 -0.059138767 -0.043171994 -0.21802427
-0.058103964 -0.017647624 0.014825921 0.094748154 -0.054837085 -0.050678212 0.08638463 0.11934008
-0.06647235 0.026486933 -0.19623284 -0.10867748 -0.12726593 -0.18370688 0.22266993 0.08136907
0.145528 -0.22893462 -0.21042174 -0.07052729 0.04455955 0.11447132 0.050184183 -0.036911983
0.139384 -0.0074178465 0.100220576 -0.032163516 0.12827498 -0.17263907 0.012573254 -0.03670311
-0.018027242 -0.25025466 -0.18368615 0.25666285 -0.19086523 0.17929965 0.23128864 -0.06303635
0.2026737 -0.014070707 0.08174385 -0.1477845 0.12531355 -0.15532668 0.21530074 -0.1354536
0.0660281 0.05018208 -0.08483288 -0.06712642 0.17417863 -0.11584992 0.042475708 -0.109179586
-0.1442458 0.02273798 -0.027704697 0.036627956 0.024690766 -0.18582384 -0.22328153 0.030504107
-0.041000128 -0.16823606 0.2090721 0.08906083 0.07494964 0.040209472 0.18061106 -0.0052296477
-0.034795135 -0.04679334 0.0042723697 0.047541566 -0.16312315 -0.14049521 -0.2306413 -0.1289001
-0.034173623 0.0074615832 0.211804 0.039292883 0.19779147 0.03306654 -0.16995294 0.11963825
-0.020513307 0.21168563 -0.09069368 0.0066369544 0.09806632 -0.17271447 -0.0744366 -0.0010260623
-0.111008555 0.03342624 -0.07772204 -0.11503177 0.12222618 -0.1831437 0.03865625 -0.063415095
-0.13769874 -0.1365517 0.1679282 -0.08160247 0.24212614 0.03914573 0.06978752 -0.07170369
-0.26072443 0.14762427 -0.08542704 -0.073818214 -0.1423443 -0.0025634852 0.07197338 0.020767426
0.29952216 -0.13739143 0.18180172 0.10116278 -0.18051583 0.057530306 0.09845584 -0.093933135
0.08498239 -0.07608376 0.2786652 0.042377535 -0.14776571 0.12406089 -0.10061661 0.08934714
-0.00958699 -0.029831212 -0.07397151 -0.053808533 -0.17972048 0.08523936 0.034238894 0.05994282
-0.022469701 0.09098656 -0.039464246 -0.07597101 -0.080223694 -0.24065356 -0.086704075 0.33407837
0.06600558 -0.09948912 -0.052827552 -0.06955549 -0.006132768 -0.13983217 -0.15349872 0.01278116
0.108764894 0.06892259 -0.10315944 -0.2420413 0.11374471 0.04965651 -0.03428892 0.11037246
-0.20463137 -0.00394448 -0.18468952 0.21621573 -0.16732727 0.10264031 -0.11424271 0.1594645
-0.04851982 0.16670617 -0.048036113 -0.0656323 -0.16333579 -0.08737263 -0.13082273 0.22029105
0.16002859 0.0031257703 0.06797336 -0.13854164 -0.04379689 0.035316266 0.04670433 -0.015517684
00000000: e7cb 423e 0ccd 7abd 75f7 3c3e 223b 93bd
00000010: 9779 a3bc a10d 073e a72b 27bb 9813 653d
00000020: b95e 1d3d c142 ddbc 2a9a f63d b609 e63d
00000030: 57e5 afbc fcb1 3c3e ec06 ebbd c387 79be
00000040: 1bfd cbbc de42 92bc 2416 be3d b129 ccbb
00000050: 479b e23d b42d 3b3d b7c9 f83c a7c8 a8bd
00000060: 665a 7dbe 41c3 e2bd 1d6d 4d3e 72c4 9cbd
00000070: 0b8b 76be bae4 06be 7989 f43d 3741 5c3d
00000080: f7d3 08be 53cc 403d 2efa e4bd 7c7a c1bb
00000090: dfe1 af3d 304a 5cbd 51df b3bd bbea 8dbd
000000a0: b899 0dbe 92cd d83d 0c34 34be e8a6 063d
000000b0: a566 e4bd 2543 0cbe 68ac 07bd 0db4 313e
000000c0: 18e5 5ebd 3784 0a3e 62ca d1bd 5c8a 123e
000000d0: 8c9c b53d 22de 8bbd 5733 513e d6b0 3b3e
000000e0: 09ab 47bd 80b3 203e 2456 d1bb 2ffa bcbc
000000f0: bcee 323e 7e3b 72bd 1ed5 30bd c141 5fbe
00000100: 6cfe 6dbd c091 90bc 6be8 723c 520b c23d
00000110: da9c 60bd f593 4fbd 6dea b03d 9268 f43d
00000120: a822 88bd 20fb d83c 43f1 48be 4c92 debd
00000130: 0052 02be a81d 3cbe 9603 643e d4a4 a63d
00000140: 4b05 153e d66d 6abe cc78 57be 9d70 90bd
00000150: 1384 363d f06f ea3d ee8d 4d3d 0531 17bd
00000160: aeba 0e3e 6811 f3bb 7240 cd3d e4bd 03bd
00000170: 845a 033e 4cc8 30be 0d00 4e3c 0056 16bd
00000180: dead 93bc 6121 80be 3918 3cbe 5069 833e
00000190: 2d72 43be 549a 373e eed6 6c3e 3419 81bd
000001a0: b289 4f3e d388 66bc 5269 a73d d254 17be
000001b0: 3252 003e f50d 1fbe cc77 5c3e 59b4 0abe
000001c0: be39 873d ba8b 4d3d dcbc adbd 9479 89bd
000001d0: e25b 323e b942 edbd 02fb 2d3d 8c99 dfbd
000001e0: 2cb5 13be 0045 ba3c f6f4 e2bc 3207 163d
000001f0: 4a44 ca3c 9b48 3ebe eaa3 64be c0e3 f93c
00000200: c0ef 27bd 1346 2cbe ff16 563e 8665 b63d
00000210: 327f 993d b0b2 243d 1bf2 383e 775d abbb
00000220: 5885 0ebd 60aa 3fbd 3cff 8b3b f2ba 423d
00000230: c109 27be fadd 0fbe 3c2d 6cbe 63fe 03be
00000240: a4f9 0bbd 4c80 f43b 26e3 583e 93f1 203d
00000250: d989 4a3e c870 073d 2508 2ebe e604 f53d
00000260: 860b a8bc 1ec4 583e 9cbd b9bd cf7a d93b
00000270: ffd6 c83d 10dc 30be 3772 98bd f07c 86ba
00000280: 7458 e3bd f4e9 083d bc2c 9fbd c795 ebbd
00000290: b851 fa3d 068a 3bbe 0456 1e3d c6df 81bd
000002a0: e600 0dbe 35d4 0bbe 5ff5 2b3e 321f a7bd
000002b0: eaef 773e 4657 203d c2ec 8e3d 62d9 92bd
000002c0: ac7d 85be d12a 173e 5ff4 aebd 012e 97bd
000002d0: b4c2 11be 2500 28bb c866 933d 7320 aa3c
000002e0: f85a 993e 57b0 0cbe 3b2a 3a3e 6e2e cf3d
000002f0: 24d9 38be e6a4 6b3d 37a3 c93d 0460 c0bd
00000300: 3f0b ae3d cdd1 9bbd 35ad 8e3e 1194 2d3d
00000310: e54f 17be a313 fe3d 1510 cebd a2fb b63d
00000320: c012 1dbc 9660 f4bc 607e 97bd 5666 5cbd
00000330: a508 38be f991 ae3d 153e 0c3d 9a86 753d
00000340: 6112 b8bc 2957 ba3d 43a5 21bd b096 9bbd
00000350: 524c a4bd e36d 76be e891 b1bd 520c ab3e
00000360: ef2d 873d f4c0 cbbd b461 58bd 1c73 8ebd
00000370: 63f5 c8bb 2a30 0fbe c52e 1dbe 1268 513c
00000380: 21c0 de3d 4927 8d3d 4245 d3bd add9 77be
00000390: fdf2 e83d a064 4b3d 8a72 0cbd f50a e23d
000003a0: e38a 51be b240 81bb 401f 3dbe a867 5d3e
000003b0: d757 2bbe 1535 d23d 15f8 e9bd a94a 233e
000003c0: b8bc 46bd 06b5 2a3e 84c1 44bd 3a6a 86bd
000003d0: 7f41 27be 6cf0 b2bd 65f6 05be fa93 613e
000003e0: 89de 233e b9d9 4c3b 9e35 8b3d dcdd 0dbe
000003f0: 5e64 33bd caa7 103d 0a4d 3f3d e23d 7ebc

bias f4 [10]
-0.007840576 0.025192225 -0.03634619 0.072742194 -0.06998726 0.058656026 -0.07996422 0.035338532
0.07833762 0.09637446
00000000: c275 00bc ed5f ce3c bedf 14bd dcf9 943d
00000010: 7b55 8fbd 4d41 703d 48c4 a3bd 23bf 103d
00000020: 796f a03d f95f c53d
