CTC/cpp/ctc.pt (torch, 60955 bytes, 4 tensors)

weight f4 [128, 80]
000000 58 9c 46 bd 61 b3 1f 3c 19 6a 89 bd 40 81 e1 3d
       -0.048488945 0.009747357 -0.0670969 0.110109806
000010 0f da d7 3d 24 db 4a 3d aa ed 69 bd 74 85 af bd
       0.10539638 0.049525395 -0.05711142 -0.08570376
000020 4e 7d ca 3c 72 14 b3 3d c1 32 8c bd 5d 57 8e 3d
       0.024717953 0.08744134 -0.06845618 0.06950257
000030 55 d1 02 3b 3a b3 4d bd b4 11 78 3d 09 86 05 3d
       0.0019961197 -0.050219752 0.060563758 0.03259853
000040 31 2b 90 bd 05 b8 c1 3c b3 db b3 3d 0b 7c 06 3d
       -0.07039488 0.023647318 0.08782139 0.03283314
000050 f9 b9 a4 bd b4 2c 94 bd 5f cd de 3d 22 31 ee 3d
       -0.08043284 -0.07235089 0.10879015 0.11630465
000060 88 1d 69 3d e0 67 b9 3d 19 d5 bb bc 9b d9 7a bd
       0.05691293 0.09053016 -0.022928761 -0.06124268
000070 a9 06 9d 3d 3e a2 08 bc 2f cf f4 3d 7f 3b 44 3d
       0.07667286 -0.008339463 0.1195358 0.047908302
000080 4c ed c5 3c 93 c1 89 3c 9a b1 c0 bd 97 d0 9c bc
       0.024161004 0.016815936 -0.09408875 -0.019142432
000090 44 18 85 3d ea 31 ad bd 97 4e 44 bc 60 26 dc 3d
       0.06498769 -0.08456786 -0.011981628 0.10749507
0000a0 37 51 94 bd 5f 21 d1 bd 24 1c ea 3d 38 8b aa bd
       -0.07242053 -0.10211443 0.11431149 -0.08327335
0000b0 be 74 00 3d 63 76 26 3d 51 fa da 3d 19 70 95 3c
       0.031361334 0.040640246 0.10692275 0.018241929
0000c0 b0 8f cc 3c 88 fd e8 3d ee ac a6 bd 7d a7 ad bc
       0.02497086 0.11376482 -0.081384525 -0.021198029
0000d0 87 8e 91 3d 27 27 05 bc 9f 64 2b 3d f9 e4 dd bc
       0.07107263 -0.00812701 0.041844007 -0.027086722
0000e0 ff 82 15 3d 50 57 4f bd be 94 b0 bc a8 2d 8e 3b
       0.03650188 -0.050620377 -0.0215553 0.0043389387
0000f0 66 02 31 3d 82 bf 55 3c 27 89 61 3d e1 58 b7 3d
       0.043215178 0.013046147 0.05506244 0.08952499
000100 af 21 32 bd a6 0b 0d bd 03 9e c4 bb 00 88 8d bd
       -0.043489154 -0.034434937 -0.006000282 -0.069107056
000110 7f 57 f2 3b bf cf 11 bd 77 b9 45 3d 8c f0 26 3d
       0.0073956843 -0.035598513 0.048272576 0.040756747
000120 d9 41 bf bd cf 62 44 bd 9c d5 7e bd 0c 22 80 3d
       -0.09338731 -0.047945794 -0.062215433 0.06256494
000130 ac c6 6d bd 43 cf 2d bd 6e d9 87 bc b4 e8 a9 3d
       -0.058050796 -0.04243399 -0.01658317 0.08296338
000140 7c 41 69 3d ce 43 d4 3d dd e5 c1 bc cb 2d 02 bc
       0.056947216 0.10364495 -0.023669178 -0.007945488
000150 a3 d3 ea 3c f6 9e 4f 3d 67 22 ca bd 8e f9 51 3d
       0.02866537 0.050688706 -0.09869843 0.051263385
000160 25 2e 66 3d 79 85 a3 bc 0d 5f 18 3c a5 f5 ab 3d
       0.05619635 -0.019961106 0.009300006 0.08396462
000170 38 6b 4d 3d 99 76 c8 bd 41 44 8e 3d 10 ab 8d 3d
       0.05015108 -0.09788246 0.06946612 0.06917393
000180 f3 b8 90 bd 7c 84 b2 bd ec 49 ed bb 5e be c6 bc
       -0.07066526 -0.08716676 -0.007241478 -0.024260696
000190 10 f6 8d bc f7 9f 85 bd 9d 3d 7d 3d 05 7b 87 3d
       -0.017329246 -0.065246515 0.061826337 0.06615261
0001a0 c0 cc 22 3d a5 71 d0 bb 8b bc b3 bd 6e 6c 95 3d
       0.039746046 -0.0063612037 -0.08776196 0.07296072
0001b0 d7 1c ac 3d f5 6f bf bd 6d 14 e9 3d ae 7d b6 3d
       0.08403938 -0.09347526 0.11380849 0.0891069
0001c0 30 80 fb 3c a1 c2 90 bd 49 6d 10 bc ba ca 53 bd
       0.030700773 -0.070683725 -0.008815118 -0.051707007
0001d0 15 82 1c bd 27 b0 76 3d c1 5e dc 3d 1d 96 9b bd
       -0.038209993 0.060226586 0.107602604 -0.07596991
0001e0 a0 d1 f2 3d 6e 8a aa bd bb 31 d5 bb ce bd 4d 3d
       0.11856389 -0.083271846 -0.0065061725 0.05022984
0001f0 af 92 ed 3d b4 76 6b bd f6 52 4a 3d dc 20 a1 bd
       0.11600243 -0.05748625 0.049395524 -0.078675956
000200 23 15 8f 3c 2a 2d af bd f3 3e f3 bc 36 a4 38 3d
       0.017466133 -0.08553536 -0.029693102 0.04507848
000210 d2 9e 7a 3d f5 01 8d 3d c9 0c 28 bd 0e 86 94 bd
       0.06118662 0.06885139 -0.041027818 -0.072521314
000220 7e 79 2f 3d 82 ae 52 bd 40 68 a5 3d 0d 32 a0 bd
       0.042840473 -0.051435955 0.08076525 -0.078220464
000230 5f d3 78 bd 34 ca 10 3a 1b 94 81 bd ef 41 8b bd
       -0.060748454 0.00055232947 -0.06327077 -0.06799685
000240 d5 95 bd bd 7a ff ca 3d 1c 3e 75 bc 13 08 99 bd
       -0.09257094 0.099120095 -0.014968421 -0.07472243
000250 9b 38 99 bd 6a 67 c2 3d fb 13 d2 3d d6 ee 73 bb
       -0.074815 0.09492381 0.10257717 -0.0037221215
000260 b2 b5 9d bd 5a e7 99 3d 8b a9 44 3d 5d 7d ea bb
       -0.07700671 0.0751483 0.04801325 -0.0071560577
000270 a9 18 01 bd b0 18 95 3d 62 23 51 3c 1f 99 8a 3d
       -0.03151766 0.072800994 0.012764784 0.06767487
000280 60 82 53 bc c9 5f ce 3d 5c c7 62 ba 8b 75 9c bd
       -0.012909502 0.10076863 -0.00086509227 -0.07639607
000290 75 ef c6 3d 4a df 38 3d 76 d9 2a 3d c3 e0 82 bc
       0.097136416 0.04513482 0.041711293 -0.015976315
0002a0 f3 9e 5c bc 4f 5d 7a bd 17 6c 66 3d 4a 91 e8 3d
       -0.013465631 -0.061124142 0.056255426 0.11355837
0002b0 b4 b0 59 bd 89 9b 2b bd f4 8a 19 bd 72 4c a0 3c
       -0.053147033 -0.041896377 -0.03748603 0.019567702
0002c0 b2 dc bf 3d f6 9b 3d 3c b9 94 03 3d 37 c3 ce bd
       0.09368266 0.0115728285 0.032124255 -0.10095828
0002d0 d4 2d a2 3b de 01 e0 bd 10 b9 c9 3c 5c b2 66 bd
       0.004949311 -0.10937856 0.024624377 -0.05632244
0002e0 a9 33 6b bd 5d fa fc bd 6f 23 fd bc 44 22 09 3a
       -0.057422314 -0.123524405 -0.030900685 0.0005231241
0002f0 54 dc 14 be 19 9e 82 bc c8 b8 04 be 02 2b 74 bd
       -0.14537174 -0.015944527 -0.12961113 -0.059611328
000300 aa 5c ed bd f4 0f 95 bd 4f a0 17 3d 06 48 ac 3c
       -0.1158994 -0.072784334 0.037018117 0.021030437
000310 7e b1 44 bd 32 b2 4e bc f4 da bf 3d 8e b7 6f bd
       -0.048020832 -0.012615727 0.09367934 -0.05852466
000320 f5 9f 99 bd 65 73 8f bd e8 95 b7 3d 79 55 c3 bd
       -0.075012125 -0.07004432 0.08964139 -0.09537787
000330 08 43 9f 3d 4b ab cd 3d 38 57 93 3d f9 08 8b 3d
       0.07776457 0.10042437 0.0719437 0.06788821
000340 ca 1a dd 3d b5 f9 0d 3e d9 ac 0c 3e 94 a6 73 bd
       0.10796125 0.13864787 0.13737811 -0.059485033
000350 10 00 ad 3d 99 19 23 bd 04 50 cf 3d b0 40 0e 3e
       0.084472775 -0.039819334 0.10122684 0.13891864
000360 d3 bf 2a bd d4 93 bc 3d aa 90 92 3d 61 7f 0a 3e
       -0.041686844 0.092078835 0.07156499 0.13525154
000370 ed 41 f6 bc e7 4e 3a bd 5c db ed 3d a1 43 08 3c
       -0.030060733 -0.045485403 0.11614105 0.008316905
000380 a5 8d 86 3d c8 2a 2a bd 82 e7 f4 bc b5 03 8c bd
       0.06569985 -0.041544706 -0.029895548 -0.068366446
000390 ed 01 9e bd e1 ae 84 bd 14 04 38 3d 6e 2f cf bd
       -0.07715211 -0.06478668 0.044925764 -0.10116468
0003a0 21 23 5e bd c0 4b b8 3d 63 89 b3 3d 6f 72 dd 3c
       -0.05423272 0.08998823 0.08766439 0.027032105
0003b0 8b 8b 0c bc 97 e6 cc bd 5c 9f e8 bc 08 85 2b bd
       -0.0085781915 -0.10004919 -0.028396301 -0.041874915
0003c0 47 6b 42 3d 0a b8 fe bc bd bb 81 bd d7 1f 81 3d
       0.04746559 -0.031093616 -0.06334636 0.06304901
0003d0 e2 ff b7 bd f6 63 e5 bb 7a 78 a9 bd cb 77 22 bd
       -0.08984353 -0.0070004417 -0.08274932 -0.039665025
0003e0 b8 68 c7 3c a9 3a c7 3d 1f a3 46 bd f4 7a 67 3b
       0.024341926 0.097279854 -0.04849541 0.0035321089
0003f0 c9 20 a9 3b d4 e3 72 3d dc b6 80 3d 64 73 80 bd
       0.005161379 0.059299305 0.06284878 -0.06272009

bias f4 [128]
000000 1b 2b 07 be 5d 53 66 bd 55 34 1a 3d 5d 3f c4 3d
       -0.13200037 -0.056231845 0.037647564 0.09582398
000010 10 95 52 3e 77 9e af bd c9 8a 5e 3d 29 ab 8d bc
       0.20564675 -0.08575147 0.054331575 -0.01729353
000020 37 e8 af 3d 79 87 51 3d 3e 47 c2 3c c7 79 3f 3e
       0.08589213 0.051154587 0.023715612 0.18698798
000030 d7 fd c5 3c ed ba 04 bb fc 9e 9b bd 9d 5b 18 3d
       0.024168892 -0.0020253018 -0.07598683 0.037196744
000040 e6 dc 9e 3d d1 e9 28 3e 78 f1 7e 3e 2f e4 8b 3d
       0.07756977 0.16495444 0.248968 0.06830632
000050 45 4e 83 3e ae a3 d2 bd 8d 99 4c bd 89 0b 50 3d
       0.25645652 -0.10285126 -0.049951125 0.05079225
000060 c2 c4 82 3d 7e c8 e4 3d 97 c2 a9 bd 25 18 0d 3e
       0.06385185 0.11171053 -0.08289068 0.13778742
000070 4c a3 05 3e 06 bb aa 3d c3 4a 03 bd 5e 66 a2 bd
       0.13050574 0.08336453 -0.03205372 -0.07929681
000080 78 9c 3e 3e c8 6d 2e 3d b0 a9 c0 3c 8e c5 f2 bc
       0.18614376 0.042585164 0.023518413 -0.029635217
000090 42 e0 c2 3d eb fb 64 3e 73 11 0f bd 5b 64 da 3d
       0.0951543 0.22361724 -0.03492875 0.106636725
0000a0 e8 83 f1 3d 24 e2 dd 3c c9 55 06 be b6 8e 06 3e
       0.11792737 0.027085371 -0.13118662 0.13140377
0000b0 0f 0e 03 3e c3 b0 f9 3c 88 91 9a 3d 61 01 1c 3e
       0.12798332 0.030479794 0.07547289 0.15234901
0000c0 15 64 12 3d 84 89 5f bd 8c a7 a9 bc 3e 27 18 3e
       0.035739977 -0.054574504 -0.020709775 0.1485872
0000d0 36 8e 9a 3d 20 a3 6b 3d ce c0 51 3d 46 44 f8 bd
       0.07546656 0.057528615 0.051209264 -0.12122397
0000e0 f3 f1 41 3d 0a 63 ba 3d 8d 34 1d 3e c1 d4 fe bd
       0.04734988 0.091009215 0.15352078 -0.12442923
0000f0 c1 d0 b3 bc 28 4f b4 bd 20 b4 bf bd 87 ef fb 3b
       -0.021950128 -0.0880416 -0.09360528 0.007688466
000100 38 c5 00 be cd 94 cd 3d ff 5a d0 3c 1f 2e 81 3d
       -0.12575233 0.10038147 0.025434015 0.06307625
000110 1e d4 11 3e b6 19 c1 3c d0 7a df 3d c6 0c 1d 3e
       0.14241073 0.02357183 0.109120965 0.15336904
000120 2f c7 ab 3c d1 21 c3 3d 91 ef 60 bc 65 fc df bd
       0.020969002 0.09527934 -0.013728992 -0.10936812
000130 c6 c8 25 bd 1e f3 40 3e f3 c6 d7 3d 32 72 fa 3d
       -0.040474676 0.18842742 0.105359934 0.12228812
000140 5f a4 be 3d 88 01 b9 bc 04 6d 35 3d 5b 51 c2 3c
       0.09308695 -0.022583738 0.04429342 0.023720434
000150 0f c7 fb 3b 2a 59 a3 ba 1d 37 fc bc 43 71 9c 3d
       0.0076836417 -0.0012462486 -0.030787999 0.076387905
000160 f7 a9 a6 bd 44 74 84 bd f2 ea e7 bd b4 48 dc bd
       -0.08137887 -0.064674884 -0.11324109 -0.107560545
000170 22 5c 14 3e d8 0a 00 be 28 ef 32 3e ba 84 f6 bc
       0.14488271 -0.12504137 0.17474043 -0.030092586
000180 a9 9e 82 bc 0e 08 dc bd d8 45 f9 bc dc 37 9c 3d
       -0.015944796 -0.10743724 -0.030428812 0.07627842
000190 98 ef 9a 3d 81 e3 aa 3c d5 8d c0 bd 9e 41 09 3d
       0.0756523 0.020860435 -0.09402052 0.033509843
0001a0 04 32 8a bd 33 5e 0c be 0b 6a 74 3d 58 6c 13 3e
       -0.06747821 -0.13707809 0.059671443 0.14396799
0001b0 e4 4b 0b 3e a5 fe bf 3d 0c 94 c1 3d 45 07 15 bc
       0.13603169 0.093747415 0.09452066 -0.0090959715
0001c0 d8 d6 d5 bc fb 9f 2a 3d a7 78 0e 3d 04 e2 80 bd
       -0.026103422 0.041656476 0.03478303 -0.06293109
0001d0 ae 41 5e bc f8 8b 20 3d e4 09 55 3e 47 fb 89 3d
       -0.013565464 0.039195985 0.20804554 0.067373805
0001e0 64 06 83 3d d5 b7 84 3c cc 98 bb bd bb 7a 33 bd
       0.06397703 0.01620094 -0.09160003 -0.043818217
0001f0 f5 f9 2d bb a4 e5 ea 3d 3e 96 97 bd 5e 1c cd ba
       -0.002654669 0.11469582 -0.07401703 -0.0015648713

weight f4 [29, 128]
000000 a8 70 77 bc a4 b8 5a bd 1c 7d 39 be f5 b6 91 3d
       -0.015102543 -0.053398743 -0.18114132 0.071149744
000010 ce 65 e5 bd 60 e7 89 bd 7c 68 b8 3c 8d 21 5e 3d
       -0.11201058 -0.067335844 0.02251076 0.054231215
000020 01 73 09 bc 5b 9f 5f bd c7 55 3d 3c 51 49 f7 39
       -0.0083892355 -0.054595333 0.011556095 0.00047166136
000030 14 f1 0e bc 88 38 58 bd 56 fd 7d 3c 90 64 eb 3b
       -0.00872447 -0.052788287 0.0155022945 0.007183619
000040 aa e5 d9 3c 80 25 61 bc 6c 5a 3f be 8e 6e 81 3a
       0.02659877 -0.013741851 -0.18686837 0.0009874867
000050 b9 75 ca bd a2 4b 88 3d 73 4c 10 3d d3 51 49 bd
       -0.09885735 0.06655051 0.035229158 -0.0491503
000060 07 f6 11 bd fc f2 4b 3d 82 44 35 bc c1 3a 31 3c
       -0.03563502 0.049792275 -0.011063697 0.010817231
000070 b6 88 0b bd 4b 03 7a bd 8c 65 b6 3c 27 7d 1a bd
       -0.034065925 -0.061038297 0.022265218 -0.03771701
000080 8f fe 36 3d c4 3d 58 3c 74 04 41 3c 91 3e b9 3d
       0.04467636 0.01319832 0.011780847 0.09045137
000090 b4 60 16 bd 22 a3 c2 bd 40 dd 7b bd 7e 0c 5c 3d
       -0.036713317 -0.09503771 -0.061490297 0.05372285
0000a0 8c 5b 2a be 74 3d f0 3b 60 f4 7d 3d 26 68 25 3d
       -0.16636485 0.0073315445 0.062000632 0.040382527
0000b0 42 80 b9 ba 34 3c 9c bd 03 31 77 3d 1e a7 ad 3d
       -0.0014152604 -0.0762867 0.060349476 0.08479141
0000c0 cd a8 40 3d a9 3d 14 3d e2 4e 37 3d 40 5b 25 bd
       0.04703598 0.036191616 0.044752963 -0.040370226
0000d0 56 ba e1 3d a2 2a f0 3d 0e 66 98 bd 73 b1 3c 3d
       0.11021869 0.117268816 -0.074413404 0.046067666
0000e0 84 48 45 bd 1c 1e 83 3c b6 2a de 3c 40 a0 b6 bd
       -0.04816486 0.016005568 0.027119976 -0.08917284
0000f0 ef 51 4e 3e bc 50 b4 3c c4 06 04 3a 0e 4f bc bd
       0.20148443 0.022011153 0.00050364085 -0.09194766
000100 cc 5b 7c bc 86 e2 ce bd 57 b5 2b bd 92 3b a8 3d
       -0.015402745 -0.101018 -0.041920986 0.08214487
000110 0b 15 a7 3c 79 e6 34 3d 3a 31 3b be 6d 90 12 3d
       0.020395776 0.04416511 -0.18280497 0.035782266
000120 b2 6d b9 bc 26 20 08 bd 0e ed a2 bd dc e9 27 bd
       -0.022635315 -0.033233784 -0.07955371 -0.04099451
000130 60 7d cd 3d 12 cf 9b 3d d9 50 c4 bc bb 8a 40 bc
       0.10033679 0.07607855 -0.023964332 -0.011751826
000140 62 cf 69 3c d4 78 17 bd eb 33 a6 3d cb e7 2e bd
       0.014270635 -0.036980465 0.08115371 -0.042701524
000150 43 d7 5b 3d 08 a3 6a 3c fa d1 5f bc ff bd 42 bd
       0.053672086 0.014321096 -0.013660902 -0.047544476
000160 c5 e4 b3 b7 d0 50 44 3d d6 85 2d 3d 3b 38 04 bd
       -2.1444992e-05 0.04792863 0.042363964 -0.032280188
000170 9b 54 0f bc 16 17 07 3d f5 13 f9 bb 40 86 01 bd
       -0.008748199 0.032981 -0.007601256 -0.03162217
000180 61 ac d4 bd 5d 1f 7d 3d 5e 8d ff bb 93 00 8c bd
       -0.10384441 0.06179749 -0.0077988347 -0.06836047
000190 18 20 7e bd 7a b5 84 bd dc f0 c7 bc 4f d4 9b 3c
       -0.062042326 -0.064799264 -0.024406843 0.019022135
0001a0 dc b1 60 bd 2a 8e 17 bd 25 c5 b1 bc e4 60 4a bd
       -0.05485712 -0.037000813 -0.021700451 -0.04940881
0001b0 91 d6 a9 3c c1 af 98 bb e8 12 20 3d 35 4b 8c 3d
       0.020732196 -0.0046596234 0.03908053 0.06850282
0001c0 39 71 96 bd 00 55 2d ba 33 bc 94 bd a5 fd 82 bd
       -0.07345814 -0.0006612092 -0.07262459 -0.06396035
0001d0 94 3b 53 3c 4b ad be 3c f9 68 b4 3b 2d e5 32 bd
       0.0128926225 0.023275992 0.005505678 -0.04367559
0001e0 84 a8 c0 bc 4e 18 10 3e 17 f0 a1 bb 9b 8e 1d 3c
       -0.023517855 0.14071772 -0.004941951 0.009616519
0001f0 99 cc 18 3d 91 8d 53 bd 09 22 26 bd bc 2b 8f bc
       0.037304495 -0.05164868 -0.040559802 -0.017476909
000200 64 b0 05 bd 6d b5 a7 bb 3e 03 12 3e 04 d5 97 3d
       -0.032638922 -0.005118063 0.1425905 0.074136764
000210 a4 12 a0 3d af 77 ec bc 6d 43 02 3c 2f cd 7f 3c
       0.078160554 -0.028865663 0.007950646 0.015612884
000220 92 1c fc 3c 62 b7 ea 3c d4 a6 a5 3d 54 c8 35 3d
       0.030775342 0.028651897 0.080884606 0.0443805
000230 ef 34 99 bc 60 24 59 bd c1 21 4a bd e4 e8 aa 3c
       -0.018701999 -0.053013206 -0.049348596 0.020863004
000240 46 6b 49 bc 3f 8f 09 3d f7 55 17 3e 57 01 30 3d
       -0.012293642 0.033583876 0.14778887 0.042970028
000250 bc ff d2 3d 7a dd 5f bc 48 a8 39 bd b4 48 d6 3d
       0.10302684 -0.013663644 -0.0453265 0.10463086
000260 f0 76 c9 3d 23 cc 76 3d ab 93 b2 bc 44 42 9f 3d
       0.09837139 0.060253274 -0.02179893 0.07776311
000270 2e 40 c8 3d 60 58 61 3d 5f 07 02 3d cc 95 08 3d
       0.09777866 0.05501592 0.03174531 0.033345982
000280 2c 5a 81 3d 6b 74 57 3d ff 7a 90 3d 81 5b 46 3d
       0.06316027 0.05260126 0.0705471 0.04842711
000290 8e e7 81 3c 23 6e 82 3d be d9 d3 3c 93 29 8c 3c
       0.015857484 0.06368663 0.025860664 0.017109668
0002a0 9f de c2 3d e8 35 1b 3d 38 8c 73 bd 75 23 bd 3d
       0.09515118 0.037893206 -0.059459895 0.092352785
0002b0 78 1a de 3c b5 dd a1 3d da 53 50 bc e7 e0 2e 3d
       0.02711223 0.079036154 -0.012715304 0.042694952
0002c0 5e bf 0d 3c 3b 34 c2 3c 14 35 a2 bc 0c 85 cf 3c
       0.0086515825 0.023706546 -0.0198007 0.025331996
0002d0 37 fd b6 bb bf 78 d5 bc 07 27 dc 3d 47 2f 9d 3b
       -0.005584385 -0.026058553 0.107496314 0.0047968957
0002e0 ba 24 95 3d ce fb 73 3d c4 d7 39 3d 83 94 6d bd
       0.07282396 0.05956631 0.045371786 -0.05800296
0002f0 2b 2b 70 3c 16 7e 37 bd 42 91 12 3d 8d 04 86 3d
       0.01465873 -0.04479798 0.03578306 0.06543837
000300 98 e0 92 bd f4 cb 28 3d 77 65 2f 37 da e1 ad bc
       -0.07171744 0.04121013 1.0454437e-05 -0.021225858
000310 26 0f cd 3c b2 b7 a3 3c 0f 4d 02 3e 43 92 84 3c
       0.025031637 0.019985054 0.12724708 0.016183024
000320 73 54 f4 3c 94 b3 78 3d 05 8f 4b bd 3e 8d 0c bd
       0.029825425 0.060718134 -0.04969694 -0.034314387
000330 bd 1c a2 3d 5c 91 2d 3c 5e d5 61 3d 8e dd d3 3c
       0.07915638 0.010593738 0.055135123 0.025862481
000340 11 5c 2e 3d ef 40 48 3d b1 45 08 3d a8 87 a1 3a
       0.04256827 0.04889005 0.033269588 0.0012323754
000350 cb 71 2c 3d fa f8 40 bc 88 58 c1 3c 2e e2 b7 3d
       0.04210071 -0.011778111 0.023601785 0.08978687
000360 4f f6 5f bd f9 5c 11 bd 8f 04 3f bd 09 52 49 bd
       -0.054678258 -0.035489056 -0.046635207 -0.0491505
000370 0d 70 2d 3d 9e c5 8b 3c f6 ed 35 3d 42 c9 19 3d
       0.042343188 0.017062005 0.04441639 0.03754545
000380 0e 87 0f 3d fb 81 0e bc bb b7 94 3d ed 60 84 3c
       0.035040908 -0.008697982 0.07261606 0.016159499
000390 7a 9c bf 3d 52 c8 84 bc 8f ec 87 3c 85 9d 38 3d
       0.093560174 -0.016208801 0.016592292 0.045072097
0003a0 71 66 c6 bc 33 51 f4 bc ea 5d 50 bb 4e 5c 2d 3d
       -0.02421877 -0.029823875 -0.0031794258 0.042324357
0003b0 2a f4 2f 3d 02 c8 53 3d 55 65 c4 3d 13 33 5a bc
       0.042957462 0.051704414 0.0958964 -0.013317841
0003c0 89 a8 e2 3c e9 a4 71 bd 31 3d 37 3d f9 63 a8 3c
       0.027668254 -0.05899516 0.04473609 0.020555483
0003d0 67 03 99 3d 8b 7c 67 3d a8 f0 b0 3d af 48 e3 3c
       0.07471352 0.056515258 0.086396515 0.02774462
0003e0 b3 2a 85 3d d4 fc cf ba 33 91 3f bc df 82 f6 bc
       0.06502285 -0.0015868195 -0.011692333 -0.030091701
0003f0 d5 aa 7a bd 33 48 4d 3d 9b 7f 50 bc 44 70 d4 bb
       -0.061198074 0.050117683 -0.012725736 -0.0064831097

bias f4 [29]
000000 1f 94 a9 bd 98 ec 66 3d 2f 58 c8 bd ec d0 25 be
       -0.08280205 0.056377977 -0.09782445 -0.16192979
000010 08 a8 42 bd ef a4 c3 bb 66 eb 39 be 13 f1 08 be
       -0.04752353 -0.0059705894 -0.18156204 -0.13373213
000020 4f 3b 52 be a6 f4 4a be f1 a9 dc bd 9e b9 dd bc
       -0.20530437 -0.19819888 -0.10774601 -0.027066048
000030 9a e2 cf bd a0 b4 97 bd c7 38 09 be a4 f7 1d bd
       -0.10150643 -0.07407498 -0.13400565 -0.038566247
000040 ea 20 4d be 8a 49 5d be 75 3e 2e bd 74 10 6e bd
       -0.20032087 -0.21610084 -0.042540032 -0.05812116
000050 38 cb 2e be 83 1c 99 bd 98 12 15 be ab 27 d6 bd
       -0.1706971 -0.07476141 -0.14557874 -0.10456785
000060 31 ed af bc f7 3f 4f be 36 a2 f8 bc 3f 51 1b bb
       -0.021475406 -0.20239244 -0.030350786 -0.002369955
000070 af 85 37 bd
       -0.044805225
